examples/p1-navigation/DDQN_20_15_8/checkpoint.pth (torch, 23263 bytes, 32 tensors)

fc0.weight f4 [20, 37]
0	0x3e1e434b	0.15455358
1	0x3e80193c	0.25019252
2	0x3e2072fb	0.15668862
3	0x3e8514f0	0.25992537
4	0xbc4714a9	-0.012150922
5	0x3e57a01a	0.21057168
6	0xbdde0bc2	-0.108420864
7	0xbd8d0ed7	-0.06887596
8	0xbc22cf76	-0.009937158
9	0xbeeb5f33	-0.4597107
10	0x3e047bd2	0.12937859
11	0x3ddf8571	0.10914124
12	0x3e0885b2	0.1333225
13	0x3dd8f085	0.105927505
14	0xbc23c1bb	-0.009994919
15	0xbbb0afb3	-0.0053920387
16	0xbd9ca429	-0.076484986
17	0x3e56d681	0.20980264
18	0x3eef2bab	0.46713004
19	0x3ed19756	0.40935773
20	0xbdbe09c3	-0.09279206
21	0x3e157ad6	0.1459764
22	0x3e05cd10	0.13066506
23	0x3e338b70	0.1753366
24	0x3e0f6ece	0.14007112
25	0xbeb58228	-0.35450864
26	0x3dcf2043	0.10113575
27	0x3ec16346	0.37771052
28	0x3ee92e8d	0.45543328
29	0x3fae5524	1.3619733
30	0xbd636075	-0.05551191
31	0x3d95f839	0.07322735
32	0x3e724b2f	0.23661493
33	0x3e6f7c63	0.23387294
34	0x3e20aae9	0.15690197
35	0x3cc7f4b9	0.024408685
36	0x3cdb39b1	0.026760908
37	0x3d2f51b3	0.042802524
38	0xbdc69048	-0.09695488
39	0xbdab5e61	-0.08367611
40	0xbd429284	-0.04750301
41	0x3e0852e3	0.13312869
42	0x3e6ac2d2	0.2292588
43	0xbd5a1703	-0.053244602
44	0xbe21b947	-0.15793334
45	0x3eaa3e9e	0.33250898
46	0x3f0e944d	0.5569504
47	0x3e047799	0.12936248
48	0xbe2ea8d3	-0.17056589
49	0xbdcb334c	-0.099218935
50	0x3d650edd	0.055922378
51	0x3def7f0a	0.11694153
52	0xbe062155	-0.13098653
53	0x3de4348e	0.111428365
54	0xbda753fd	-0.08170316
55	0x3d7d689d	0.061867345
56	0xbe473ed2	-0.19457558
57	0xbdc1bacf	-0.09459459
58	0x3d97d5b0	0.074138045
59	0xbdf9e5c2	-0.12202026
60	0xbe04545b	-0.12922804
61	0x3f44db42	0.7689706
62	0x3d9d5da9	0.0768388
63	0xbe836729	-0.25664642
64	0xbea3e823	-0.32013044
65	0xbebb4b02	-0.36580664
66	0xbedb7fd6	-0.4287097
67	0xbe4e1323	-0.20124488
68	0x3e4a7416	0.19770846
69	0x3d1fc98c	0.03901057
70	0x3cdf9ae3	0.027295535
71	0x3f35ef62	0.71068394
72	0x3e340ddd	0.17583413
73	0x3e2be314	0.16785842
74	0x3dd07038	0.10177654
75	0x3d87a5fa	0.066234544
76	0xbd171d00	-0.03689289
77	0xbd8324f3	-0.06403532
78	0xbd8da138	-0.06915516
79	0xbe262152	-0.16223648
80	0x3eca81f9	0.39552286
81	0x3f58f5b4	0.84749913
82	0x3f9b3835	1.2126528
83	0x4030052e	2.7503161
84	0xbc99f9a7	-0.018795801
85	0x3d2997fd	0.041404713
86	0x3df3bce2	0.11901261
87	0x3df1a921	0.11799837
88	0x3e01e907	0.12686549
89	0xbdb36041	-0.08758593
90	0x3e0f1da7	0.13976155
91	0x3df92756	0.12165706
92	0x3e4c5a61	0.19956352
93	0x3e8bfb4d	0.27340165
94	0xbdfc5fe8	-0.1232298
95	0x3e0e4fd6	0.13897642
96	0x3e44addb	0.19206946
97	0x3e1c0a66	0.15238342
98	0x3ee54925	0.44782367
99	0x3d62cbd4	0.055370167
100	0x3e53a5cd	0.20668717
101	0x3de753d8	0.11295289
102	0x3e782954	0.24234515
103	0x3f0a9cdf	0.54145616
104	0x3e2a7d13	0.16649275
105	0xbbfdaa8d	-0.0077412785
106	0x3db8eb84	0.09029296
107	0x3e556e5a	0.20842877
108	0x3dda5762	0.10661198
109	0x3c968082	0.018371824
110	0x3c1b05bf	0.009461819
111	0xbed7145b	-0.42007717
112	0xbf325a81	-0.6966935
113	0xbe9bfee3	-0.304679
114	0x3d0ea5e7	0.034826186
115	0xbf448d4e	-0.76778114
116	0xbd480155	-0.048829395
117	0xbe4540ae	-0.19262955
118	0xbe100790	-0.14065385
119	0xbf25e0ef	-0.64796346
120	0xbe9a7a56	-0.3017146
121	0xbf047b5a	-0.5175072
122	0xbf26ebcb	-0.6520354
123	0xbe19f953	-0.15036516
124	0x3de60acb	0.11232527
125	0xbf3bc8b2	-0.7335311
126	0xbf17a247	-0.5923199
127	0xbd0ad009	-0.033889804
128	0x3d1690c3	0.03675915
129	0xbd557b83	-0.052119743
130	0x3e06b2ba	0.13154116
131	0xbf2681e0	-0.65041924
132	0x3dd36813	0.10322585
133	0x3d23a567	0.03995266
134	0xbeb982a5	-0.36232486
135	0xbe3775d6	-0.17916045
136	0xbc55de72	-0.013053523
137	0xbe50356d	-0.2033288
138	0xbed32238	-0.41237044
139	0xbeee142a	-0.4649976
140	0xbe404ec4	-0.18780047
141	0xbf378892	-0.71692765
142	0xbeb6d62d	-0.35710278
143	0x3c403530	0.011731431
144	0xbe841400	-0.2579651
145	0x3dd14981	0.10219098
146	0xbd8f3a92	-0.06993593
147	0xbcf6a578	-0.030108199
148	0x3dbf6897	0.09346121
149	0xbe0dbf9e	-0.13842627
150	0xbb54ee5c	-0.0032490706
151	0x3dd9d9b3	0.10637226
152	0xbde15cfc	-0.110040635
153	0xbdefa41a	-0.11701222
154	0x3e878723	0.2647029
155	0x3ef0dff7	0.47045872
156	0x3f27be70	0.6552496
157	0x3fbd93c9	1.4810725
158	0x3e1e6579	0.15468396
159	0x3e12735c	0.14301819
160	0xbcb68a17	-0.022282643
161	0x3d42356b	0.047414225
162	0x3daf3a9a	0.08556099
163	0x3d942612	0.07233824
164	0xbd633536	-0.055470668
165	0xbe0f0faa	-0.13970819
166	0xbba44258	-0.0050127916
167	0x3d7c6d39	0.0616276
168	0x3ec77b9f	0.38961503
169	0xbdf1fa7a	-0.11815353
170	0xbe3d2552	-0.18471268
171	0xbe97ff6b	-0.29687056
172	0xbe7b583b	-0.24545376
173	0xbe3cf75e	-0.18453738
174	0x3ec66004	0.3874513
175	0x3e3f65c2	0.18691161
176	0x3f088873	0.53333205
177	0x3fb3da37	1.4050969
178	0x3e5ec5b0	0.217551
179	0xbd7e1b55	-0.062037785
180	0xbe563d53	-0.20921831
181	0xbe85d0ad	-0.2613577
182	0x3ca86c75	0.020559529
183	0xbd267078	-0.040634602
184	0x3b9e3c47	0.004828963
185	0x3d3d15ed	0.04616349
186	0x3ce0d0bb	0.02744328
187	0x3cd5173a	0.026012052
188	0xbc3a82a6	-0.011383688
189	0x3db6ecaa	0.08931859
190	0xbd825c53	-0.06365266
191	0x3cc0d1bc	0.02353751
192	0x3e243744	0.16036707
193	0x3eb96080	0.36206436
194	0x3f149952	0.5804645
195	0xbd34f5ba	-0.044179656
196	0x3cc3deb5	0.023909906
197	0x3d70955e	0.058736198
198	0x3d574a37	0.05256101
199	0x3d791d73	0.0608191
200	0x3e35fbb5	0.177718
201	0x3e09ea9f	0.13468407
202	0x3e044ab5	0.12919123
203	0x3d10747d	0.035267342
204	0xbe104605	-0.1408921
205	0xbbe5a786	-0.0070084957
206	0x3dc5d7fc	0.096603364
207	0x3e3b7877	0.18307672
208	0x3e1a9edc	0.15099663
209	0x3e45a034	0.19299394
210	0xbcab9f90	-0.020950109
211	0xbda53c90	-0.08068192
212	0xbdba5b10	-0.090994
213	0xbcb504ab	-0.022096952
214	0x3dacf76c	0.084456295
215	0x3ea652a1	0.32484916
216	0xbf4d9fc1	-0.8032189
217	0xbf631946	-0.8871044
218	0xbfbc530f	-1.4712847
219	0xc057045e	-3.3596416
220	0x3d638bdc	0.055553302
221	0x3c908a21	0.01764399
222	0x3d9391e4	0.07205561
223	0x3ca34eac	0.019934975
224	0xb9fb5e45	-0.00047944687
225	0x3c9fd2b6	0.019509654
226	0xbd7e2ba7	-0.06205335
227	0x3ec39e48	0.38206697
228	0xbef58ddd	-0.47959796
229	0xbf8a78dd	-1.0818135
230	0xbf1eec66	-0.62079465
231	0xc062996c	-3.5406141
232	0x3e25661c	0.16152233
233	0x3e006738	0.12539375
234	0x3db42fe3	0.08798196
235	0x3dd6f33c	0.10495612
236	0xbd10b213	-0.035326075
237	0x3cc76b6e	0.024343219
238	0x3e1a6cd9	0.15080585
239	0x3e08727e	0.13324925
240	0xbb0c0dda	-0.002137056
241	0xbd7325e3	-0.059362303
242	0x3dc010dc	0.09378216
243	0x3e2c5ef9	0.16833104
244	0x3d4027ab	0.04691283
245	0x3d44a5e1	0.048009757
246	0x3d86bd01	0.065790184
247	0xbd02ba64	-0.031916037
248	0x3e82ab74	0.25521433
249	0x3de18f0d	0.11013613
250	0x3d8888f5	0.066667475
251	0x3d285bb6	0.041103087
252	0x3e124167	0.14282762
253	0x3dc80245	0.09766058
254	0x3e627083	0.22113232
255	0x3dcdb527	0.10044318

fc0.bias f4 [20]
0	0x3e89ac4a	0.2688926
1	0xbe5f8d8c	-0.2183134
2	0x3c5c02c5	0.013428395
3	0xbe3be05e	-0.18347308
4	0x3dfb5d4f	0.122736566
5	0xbe1eaef7	-0.15496431
6	0xbc9a5889	-0.018841045
7	0x3dbc0685	0.09180931
8	0x3e103932	0.14084318
9	0xbd3e43d7	-0.046451416
10	0xbdd87d63	-0.105707906
11	0x3e1db07e	0.15399358
12	0x3d2f1996	0.04274901
13	0x3e5f774a	0.21822849
14	0x3e32f9eb	0.17478149
15	0x3c1defc7	0.009639687
16	0x3d06effe	0.032943718
17	0x3ea4c667	0.3218262
18	0xbc35dc0e	-0.011099828
19	0x3dff7421	0.12473322

fc1.weight f4 [15, 20]
0	0x3e57eec4	0.21087176
1	0xbe89e4b6	-0.26932305
2	0x3de58ba9	0.11208279
3	0x3e681db9	0.22667588
4	0x3e36ae51	0.17839934
5	0xbec4a9da	-0.38410836
6	0x3e2bbafe	0.1677055
7	0x3e859ffd	0.26098624
8	0xbfaa803c	-1.3320384
9	0xbece125a	-0.40248376
10	0xbe694e4b	-0.22783773
11	0x3dc48dd3	0.09597363
12	0x3e233bec	0.15940827
13	0x3cfd5b32	0.030927274
14	0xbe47c138	-0.19507301
15	0xbd261845	-0.04055049
16	0xbf3fe0e9	-0.7495256
17	0x3e4507f6	0.19241318
18	0xbeed1fa6	-0.46313208
19	0xbe925295	-0.2857863
20	0x3d8577e9	0.06517012
21	0xbe39fca3	-0.1816278
22	0xbc9e2fb6	-0.01930986
23	0x3d3bb7ae	0.045829467
24	0x3eaf5e7f	0.34251782
25	0x3f90f296	1.1324031
26	0x3dac1e82	0.084042564
27	0xbefe1d53	-0.49631748
28	0xbeb2a6d9	-0.3489292
29	0xbe8225b5	-0.25419393
30	0xbe694b15	-0.22782548
31	0x3e306d8e	0.17229292
32	0xbf294271	-0.66117007
33	0x3e4d44d8	0.20045793
34	0x3d5e8b4b	0.05433206
35	0x3e725eb2	0.23668936
36	0x3e81887e	0.25299448
37	0x3e300b58	0.17191827
38	0xbc1a8149	-0.009430238
39	0x3f672630	0.90292645
40	0x3e7c1be3	0.24620013
41	0xbd2c4dad	-0.042066265
42	0xbebd22ac	-0.36940515
43	0x3ec756b3	0.38933334
44	0xbd73093b	-0.059334975
45	0xbeb099eb	-0.3449243
46	0x3e99d0c1	0.3004208
47	0x3dc7cffe	0.09756468
48	0x3ef88ef7	0.48546574
49	0x3d43ded2	0.04781992
50	0x3e83870e	0.25688976
51	0x3f0a1aeb	0.53947324
52	0xbe85e86a	-0.2615388
53	0xbdf65257	-0.12027424
54	0xbdacbe28	-0.08434707
55	0x3cce2a45	0.02516664
56	0x3e8baa7d	0.2727851
57	0xbd1f22b4	-0.038851455
58	0xbd918816	-0.071060345
59	0xbf0af761	-0.5428372
60	0x3ea1229a	0.3147171
61	0xbe437c28	-0.1909033
62	0x3dacbc1a	0.08434315
63	0x3d1aeacb	0.037821572
64	0x3eb13ac8	0.3461516
65	0xbf5d7f33	-0.86522216
66	0x3d9f336d	0.077734806
67	0x3e1fb4ce	0.15596315
68	0x3f730928	0.94935846
69	0xbe9d6955	-0.30744424
70	0x3f1129bf	0.56704324
71	0x3e3a377f	0.18185233
72	0x3e4b410a	0.19849029
73	0x3e82fc8b	0.255833
74	0xbeb5f8b4	-0.35541308
75	0x3ee1b224	0.44081223
76	0x3d278ab6	0.04090377
77	0x3de47703	0.11155512
78	0xbf3b3f1e	-0.73143184
79	0xbec7b9ad	-0.39008847
80	0xbdd0d911	-0.10197652
81	0xbf0321c2	-0.51223385
82	0xbea4e097	-0.32202598
83	0x3e9acdad	0.30235043
84	0x3e9f6492	0.31131417
85	0x3f14e7cb	0.5816619
86	0x3ecf053c	0.4043368
87	0x3f1f3b8f	0.62200254
88	0xbf557cff	-0.83393854
89	0x3ec6973a	0.38787252
90	0xbe066a89	-0.13126577
91	0xbe2b94a4	-0.1675592
92	0x3e170bc9	0.1475059
93	0xbe07822f	-0.13233255
94	0x3d300a26	0.04297843
95	0x3d9c7c6a	0.076409176
96	0x3ef2e8ab	0.47443137
97	0xbeecc97b	-0.46247467
98	0x3eb96e9d	0.36217204
99	0x3f475239	0.77859837
100	0xbe76eba1	-0.24113323
101	0xbe8fcaac	-0.28084314
102	0xbf6805d0	-0.9063387
103	0x3ecdfcf8	0.40232062
104	0xbe3af3a6	-0.18257007
105	0xbd18790f	-0.037224825
106	0x3ea9ee14	0.33189452
107	0xbe3e7579	-0.185995
108	0x3f048f0b	0.51780766
109	0x3e7db9a3	0.24777846
110	0x3f32e69d	0.6988314
111	0xbb3fbd3f	-0.0029257087
112	0xbecb2b17	-0.39681312
113	0x3f15a43a	0.58453715
114	0x3e1c0073	0.15234546
115	0xbdd0fb6e	-0.102042064
116	0x3dbc8dfb	0.09206768
117	0xbb854b76	-0.0040678335
118	0x3e9cbb45	0.30611625
119	0x3eb8ec27	0.3611767
120	0x3de5e670	0.11225593
121	0xbe97a8c8	-0.29620957
122	0x3d20438b	0.039126914
123	0xbdd547b4	-0.10414067
124	0xbf52febc	-0.82419944
125	0x3ddc027b	0.107426606
126	0xbe4de2f2	-0.20106104
127	0xbf187daa	-0.5956675
128	0xbe43e777	-0.19131266
129	0xbe8398b5	-0.25702444
130	0x3f3172ac	0.693156
131	0xbe2147d5	-0.15750058
132	0x3ac7ae98	0.0015234528
133	0x3e9cce02	0.3062592
134	0xbf57f450	-0.84357166
135	0xbf3c64d0	-0.7359133
136	0xbda39706	-0.0798779
137	0xbe55b97f	-0.20871542
138	0xbe9a6330	-0.301538
139	0x3e0ee2f6	0.13953766
140	0xbe2ef2b5	-0.17084773
141	0xbe4d7ca3	-0.20067076
142	0xbe5e1087	-0.21685992
143	0xbcba7860	-0.022762477
144	0xbe9e8023	-0.30957136
145	0xbd4aa77e	-0.04947614
146	0x3c6cb8c2	0.014448347
147	0xbec91896	-0.3927657
148	0xbebc4d03	-0.36777505
149	0x3be78343	0.007065208
150	0x3dafc487	0.085824065
151	0xbe385358	-0.18000543
152	0xbd837a61	-0.06419826
153	0x3e9f408c	0.31103933
154	0x3e417edd	0.18896051
155	0xbc25e045	-0.010124271
156	0x3d10b844	0.03533198
157	0xbe8d8715	-0.27642122
158	0x3c1c3499	0.009534025
159	0x3cceca6c	0.025243007
160	0x3d2a53dc	0.04158388
161	0x3e0810b2	0.13287619
162	0xbe9a4e17	-0.30137703
163	0x3f026ce9	0.50947434
164	0xbee6f861	-0.45111373
165	0xbe2a574c	-0.16634864
166	0x3e7b1f85	0.24523742
167	0x3e7416a0	0.23836756
168	0x3f77c14e	0.96779335
169	0x3d823263	0.06357267
170	0x3f0dd439	0.5540195
171	0x3e48c64a	0.19606891
172	0x3e7b3c71	0.24534775
173	0xbc159d65	-0.009131764
174	0x3d3bcf22	0.045851834
175	0xbdfa581a	-0.12223835
176	0x3e17c584	0.1482144
177	0x3e44f545	0.19234188
178	0x3ec2c709	0.38042477
179	0xbc4c0a3b	-0.012453611
180	0xbe431db9	-0.19054307
181	0xbe0b045c	-0.13575882
182	0x3d156997	0.03647765
183	0xbdd6fa91	-0.104970105
184	0x3dcad2f4	0.09903517
185	0x3d002b55	0.031291325
186	0xbdfdb219	-0.12387485
187	0xbddf75be	-0.109111294
188	0xbe2e014e	-0.16992685
189	0xbe655b2d	-0.22398062
190	0x3cb9d533	0.02268467
191	0x3cd87278	0.02642177
192	0xbd634395	-0.055484373
193	0x3e965910	0.29364824
194	0xbe405950	-0.1878407
195	0x3d807408	0.06272131
196	0xbd4eb5ba	-0.050466277
197	0x3dc9b373	0.0984868
198	0xbe3e33d3	-0.18574457
199	0x3bfba05b	0.007679028
200	0xbe2625d4	-0.16225368
201	0xbcbf77e6	-0.023372602
202	0xbf0d446a	-0.55182517
203	0xbe3b2eb2	-0.18279532
204	0xbe8e6a15	-0.2781531
205	0x3e8f0e61	0.27940658
206	0xbd3339a3	-0.04375614
207	0xbd26a915	-0.040688593
208	0x3f17c26c	0.5928104
209	0x3e0b4264	0.13599545
210	0x3f2841e7	0.6572556
211	0x3e5ec352	0.21754196
212	0x3f03e687	0.5152363
213	0x3e0edbfc	0.13951105
214	0x3da10e45	0.0786405
215	0x3e062657	0.13100563
216	0x3d81b7eb	0.06333908
217	0xbe94ff79	-0.2910116
218	0xbd588d83	-0.05286933
219	0x3ec3cb42	0.3824101
220	0x3e18dc16	0.14927706
221	0xbebe826a	-0.37208873
222	0x3e1a38d1	0.15060736
223	0x3db34087	0.08752542
224	0xbe0eb091	-0.13934542
225	0xbf03304c	-0.5124557
226	0xbef7f246	-0.48427027
227	0x3f0fbe5a	0.5614983
228	0xbf623259	-0.88358074
229	0xbe17cee1	-0.14825012
230	0xbdf78526	-0.12085943
231	0xbe32edf5	-0.17473586
232	0x3ecd4781	0.40093616
233	0x3ebf141d	0.37320033
234	0xbdac59af	-0.08415543
235	0x3d6817f7	0.05666348
236	0xbebfae52	-0.37437683
237	0x3e8f89e8	0.28034902
238	0xbf06833c	-0.52544
239	0x3e9abf0b	0.3022388
240	0xbcb14f14	-0.021644153
241	0xbe826291	-0.25465825
242	0xbdbe07b9	-0.09278817
243	0x3d2ee61d	0.042699922
244	0xbf018d83	-0.50606555
245	0xbf160072	-0.5859443
246	0xbecd928b	-0.40150866
247	0x39ad10d0	0.00033009658
248	0x3e096f4e	0.13421366
249	0x3e1aba56	0.15110144
250	0xbf0d7bf5	-0.5526727
251	0xbf497eb1	-0.7870894
252	0x3e6d7bb4	0.2319172
253	0x3e78d1e1	0.24298812
254	0x3f064897	0.52454513
255	0x3d9eee68	0.07760316

fc1.bias f4 [15]
0	0xbe9a4a2c	-0.30134714
1	0x3ecfb2d3	0.4056612
2	0x3e3ef6dd	0.18648858
3	0x3dbba20d	0.09161768
4	0xbdfe5337	-0.12418216
5	0xbed80c92	-0.4219709
6	0xbe022b79	-0.12711896
7	0xbc981e43	-0.018569117
8	0xbd5fdaf1	-0.05465216
9	0xbe65970e	-0.22420904
10	0xbe08dc81	-0.13365366
11	0x3de83fc5	0.11340288
12	0xbde4881b	-0.111587726
13	0x3de1e463	0.110298894
14	0x3d6a738a	0.057239093

fc2.weight f4 [8, 15]
0	0xbedc4497	-0.4302108
1	0x3ee423fc	0.44558704
2	0x3ec8cfa4	0.39220917
3	0xbdf24304	-0.118291885
4	0x3ecd6edc	0.40123641
5	0x401f2db0	2.4871635
6	0xbf717b77	-0.9432902
7	0xbe7b9332	-0.2456787
8	0x3e57078b	0.20998971
9	0xbe166761	-0.14687873
10	0x3db32f5d	0.08749268
11	0xbe674a18	-0.22586858
12	0xbe3dc566	-0.18532333
13	0xbebfeece	-0.3748688
14	0x3e6b058c	0.22951335
15	0xbeb6d09e	-0.35706037
16	0x3ec9fd8d	0.39451256
17	0xbeaa3fff	-0.3325195
18	0xbd95f746	-0.07322554
19	0x3f01cbbb	0.50701493
20	0xbfa8a766	-1.3176086
21	0x3d09d16e	0.033646993
22	0x3e469f51	0.19396712
23	0x3ee3dd11	0.44504598
24	0x3e4bcc65	0.19902189
25	0xbf212dc7	-0.62960476
26	0xbebadea7	-0.36497995
27	0x3ec121c8	0.37721086
28	0xbf56af55	-0.83861285
29	0x3efc8768	0.49322057
30	0xbf046e7f	-0.51731104
31	0x3ea59149	0.32337406
32	0x3ee26f65	0.44225612
33	0x3d5bdd99	0.05367813
34	0x3f2fce2b	0.6867396
35	0x4014acaa	2.3230386
36	0xbf3a55d0	-0.7278719
37	0xbd8c3b1c	-0.06847212
38	0xbe0c324d	-0.13691063
39	0x3d840228	0.06445724
40	0x3df14704	0.11781123
41	0x3d4c8ac5	0.04993703
42	0xbe860013	-0.26171932
43	0xbe86772c	-0.26262796
44	0x3e87e86a	0.26544505
45	0xbd4da2bb	-0.05020402
46	0x3e80ac6a	0.25131541
47	0x3f0e0e38	0.55490446
48	0xbe48c93f	-0.1960802
49	0x3f38473b	0.7198369
50	0x4011648f	2.2717626
51	0xbecbd6a4	-0.39812195
52	0x3e719b7a	0.23594466
53	0x3e41cac4	0.18925005
54	0xbd9c3da9	-0.07628948
55	0x3d572d23	0.05253328
56	0x3cf9ad15	0.03047804
57	0xbe667623	-0.22506003
58	0xbf5f7f1d	-0.87303334
59	0x3e86608c	0.26245534
60	0xbdbcf3fe	-0.09226225
61	0x3ec17954	0.3778788
62	0xbea31a10	-0.31855822
63	0xbf736096	-0.95069253
64	0x3f68afa7	0.90893024
65	0xbfadc9b7	-1.3577183
66	0x3c9d360c	0.01919081
67	0x3ea5519b	0.32288823
68	0xbfb23d32	-1.3924925
69	0x3dc2622c	0.09491381
70	0xbfb3d3dc	-1.4049029
71	0xbe9f9c0c	-0.31173742
72	0xbe17af51	-0.14812972
73	0xbf63ff5e	-0.89061534
74	0x3e7bf141	0.2460375
75	0x3ec6333d	0.38710967
76	0x3ec69df9	0.387924
77	0xbdf27dd5	-0.11840407
78	0xbe80b903	-0.25141153
79	0x3dd36609	0.10322196
80	0x3ff70402	1.9298098
81	0xbebac3dc	-0.36477554
82	0x3df685fe	0.12037276
83	0x3e095f1b	0.13415186
84	0x3e03a4f9	0.12855901
85	0xbdc410cd	-0.09573517
86	0xbf0c291d	-0.54750234
87	0xbd50b910	-0.05095774
88	0x3f92f586	1.1481178
89	0x3d137034	0.035995677
90	0xbe26f55f	-0.16304539
91	0x3e649c58	0.22325265
92	0xbea42a8f	-0.3206372
93	0xbf103c2a	-0.56341803
94	0xbd80e79c	-0.06294176
95	0x3f2abc14	0.66693234
96	0xbecc86ac	-0.39946496
97	0x3da33192	0.07968439
98	0x3cd29621	0.025706353
99	0x3e7f456b	0.24928825
100	0x3f3471f5	0.70486385
101	0xbdefde78	-0.117123544
102	0xbe2b9631	-0.16756512
103	0x3f73edc9	0.95284706
104	0xbeba0f70	-0.36339903
105	0x3d5c0bd5	0.05372222
106	0x3e7bad06	0.24577722
107	0x3f2af505	0.6678012
108	0xbe1ebcba	-0.15501681
109	0xbd8345f3	-0.06409826
110	0x3ff030d9	1.8764907
111	0xbe8a8341	-0.27053264
112	0xbe18f7f1	-0.14938332
113	0x3ec80f74	0.3907429
114	0xbd1f1e71	-0.03884739
115	0x3f4d0048	0.80078554
116	0x3e2e3ee3	0.17016177
117	0xbe9ff440	-0.31241035
118	0x3f2c40b0	0.67286205
119	0xbe0a316a	-0.13495412

fc2.bias f4 [8]
0	0x3dc0d660	0.09415889
1	0x3ea9ae3f	0.33140752
2	0x3db5d6d1	0.088788636
3	0xbe8901a9	-0.2675908
4	0xbcbdba91	-0.02316025
5	0x3f055bc9	0.5209318
6	0x3f7ecae6	0.9952835
7	0x3ebdaebc	0.37047374

output.weight f4 [4, 8]
0	0x3e7fd701	0.24984361
1	0xbf044547	-0.5166821
2	0x3e3ead40	0.18620777
3	0x3da0fec7	0.07861095
4	0xbf1fcc7f	-0.6242141
5	0x3d42ecf7	0.04758927
6	0x3e9da0bb	0.3078669
7	0x3e4a0df7	0.1973189
8	0xbebe28ae	-0.3714041
9	0xbf0d21fe	-0.5512999
10	0xbdc56e84	-0.0964022
11	0xbeb242b2	-0.3481651
12	0xc0a8ddf0	-5.277092
13	0xbfdb60dd	-1.7138935
14	0xc0736e6b	-3.8036144
15	0xbe9d2e53	-0.30699405
16	0xbdd42962	-0.10359456
17	0x3f17bf4c	0.5927627
18	0xbdfe0c4f	-0.124046914
19	0xbe4bc83f	-0.19900607
20	0x3fa1013d	1.2578503
21	0xbe40fa16	-0.188454
22	0xbed1221a	-0.4084633
23	0xbf0feaba	-0.5621754
24	0xbf0655df	-0.5247478
25	0xbf33d710	-0.70250034
26	0xbf25a872	-0.6471015
27	0xbfbf7d38	-1.4960089
28	0xc09124a3	-4.5357223
29	0x3e090d2a	0.13383928
30	0x3fb283c8	1.3946466
31	0x3e15b033	0.14617996

output.bias f4 [4]
0	0xbd0db072	-0.0345921
1	0x3e8feb4a	0.281092
2	0xbee3cd5b	-0.4449261
3	0x3ef29e21	0.47386268

fc0.weight f4 [20, 37]
0	0x3e1e434b	0.15455358
1	0x3e80193c	0.25019252
2	0x3e2072fb	0.15668862
3	0x3e8514f0	0.25992537
4	0xbc4714a9	-0.012150922
5	0x3e57a01a	0.21057168
6	0xbdde0bc2	-0.108420864
7	0xbd8d0ed7	-0.06887596
8	0xbc22cf76	-0.009937158
9	0xbeeb5f33	-0.4597107
10	0x3e047bd2	0.12937859
11	0x3ddf8571	0.10914124
12	0x3e0885b2	0.1333225
13	0x3dd8f085	0.105927505
14	0xbc23c1bb	-0.009994919
15	0xbbb0afb3	-0.0053920387
16	0xbd9ca429	-0.076484986
17	0x3e56d681	0.20980264
18	0x3eef2bab	0.46713004
19	0x3ed19756	0.40935773
20	0xbdbe09c3	-0.09279206
21	0x3e157ad6	0.1459764
22	0x3e05cd10	0.13066506
23	0x3e338b70	0.1753366
24	0x3e0f6ece	0.14007112
25	0xbeb58228	-0.35450864
26	0x3dcf2043	0.10113575
27	0x3ec16346	0.37771052
28	0x3ee92e8d	0.45543328
29	0x3fae5524	1.3619733
30	0xbd636075	-0.05551191
31	0x3d95f839	0.07322735
32	0x3e724b2f	0.23661493
33	0x3e6f7c63	0.23387294
34	0x3e20aae9	0.15690197
35	0x3cc7f4b9	0.024408685
36	0x3cdb39b1	0.026760908
37	0x3d2f51b3	0.042802524
38	0xbdc69048	-0.09695488
39	0xbdab5e61	-0.08367611
40	0xbd429284	-0.04750301
41	0x3e0852e3	0.13312869
42	0x3e6ac2d2	0.2292588
43	0xbd5a1703	-0.053244602
44	0xbe21b947	-0.15793334
45	0x3eaa3e9e	0.33250898
46	0x3f0e944d	0.5569504
47	0x3e047799	0.12936248
48	0xbe2ea8d3	-0.17056589
49	0xbdcb334c	-0.099218935
50	0x3d650edd	0.055922378
51	0x3def7f0a	0.11694153
52	0xbe062155	-0.13098653
53	0x3de4348e	0.111428365
54	0xbda753fd	-0.08170316
55	0x3d7d689d	0.061867345
56	0xbe473ed2	-0.19457558
57	0xbdc1bacf	-0.09459459
58	0x3d97d5b0	0.074138045
59	0xbdf9e5c2	-0.12202026
60	0xbe04545b	-0.12922804
61	0x3f44db42	0.7689706
62	0x3d9d5da9	0.0768388
63	0xbe836729	-0.25664642
64	0xbea3e823	-0.32013044
65	0xbebb4b02	-0.36580664
66	0xbedb7fd6	-0.4287097
67	0xbe4e1323	-0.20124488
68	0x3e4a7416	0.19770846
69	0x3d1fc98c	0.03901057
70	0x3cdf9ae3	0.027295535
71	0x3f35ef62	0.71068394
72	0x3e340ddd	0.17583413
73	0x3e2be314	0.16785842
74	0x3dd07038	0.10177654
75	0x3d87a5fa	0.066234544
76	0xbd171d00	-0.03689289
77	0xbd8324f3	-0.06403532
78	0xbd8da138	-0.06915516
79	0xbe262152	-0.16223648
80	0x3eca81f9	0.39552286
81	0x3f58f5b4	0.84749913
82	0x3f9b3835	1.2126528
83	0x4030052e	2.7503161
84	0xbc99f9a7	-0.018795801
85	0x3d2997fd	0.041404713
86	0x3df3bce2	0.11901261
87	0x3df1a921	0.11799837
88	0x3e01e907	0.12686549
89	0xbdb36041	-0.08758593
90	0x3e0f1da7	0.13976155
91	0x3df92756	0.12165706
92	0x3e4c5a61	0.19956352
93	0x3e8bfb4d	0.27340165
94	0xbdfc5fe8	-0.1232298
95	0x3e0e4fd6	0.13897642
96	0x3e44addb	0.19206946
97	0x3e1c0a66	0.15238342
98	0x3ee54925	0.44782367
99	0x3d62cbd4	0.055370167
100	0x3e53a5cd	0.20668717
101	0x3de753d8	0.11295289
102	0x3e782954	0.24234515
103	0x3f0a9cdf	0.54145616
104	0x3e2a7d13	0.16649275
105	0xbbfdaa8d	-0.0077412785
106	0x3db8eb84	0.09029296
107	0x3e556e5a	0.20842877
108	0x3dda5762	0.10661198
109	0x3c968082	0.018371824
110	0x3c1b05bf	0.009461819
111	0xbed7145b	-0.42007717
112	0xbf325a81	-0.6966935
113	0xbe9bfee3	-0.304679
114	0x3d0ea5e7	0.034826186
115	0xbf448d4e	-0.76778114
116	0xbd480155	-0.048829395
117	0xbe4540ae	-0.19262955
118	0xbe100790	-0.14065385
119	0xbf25e0ef	-0.64796346
120	0xbe9a7a56	-0.3017146
121	0xbf047b5a	-0.5175072
122	0xbf26ebcb	-0.6520354
123	0xbe19f953	-0.15036516
124	0x3de60acb	0.11232527
125	0xbf3bc8b2	-0.7335311
126	0xbf17a247	-0.5923199
127	0xbd0ad009	-0.033889804
128	0x3d1690c3	0.03675915
129	0xbd557b83	-0.052119743
130	0x3e06b2ba	0.13154116
131	0xbf2681e0	-0.65041924
132	0x3dd36813	0.10322585
133	0x3d23a567	0.03995266
134	0xbeb982a5	-0.36232486
135	0xbe3775d6	-0.17916045
136	0xbc55de72	-0.013053523
137	0xbe50356d	-0.2033288
138	0xbed32238	-0.41237044
139	0xbeee142a	-0.4649976
140	0xbe404ec4	-0.18780047
141	0xbf378892	-0.71692765
142	0xbeb6d62d	-0.35710278
143	0x3c403530	0.011731431
144	0xbe841400	-0.2579651
145	0x3dd14981	0.10219098
146	0xbd8f3a92	-0.06993593
147	0xbcf6a578	-0.030108199
148	0x3dbf6897	0.09346121
149	0xbe0dbf9e	-0.13842627
150	0xbb54ee5c	-0.0032490706
151	0x3dd9d9b3	0.10637226
152	0xbde15cfc	-0.110040635
153	0xbdefa41a	-0.11701222
154	0x3e878723	0.2647029
155	0x3ef0dff7	0.47045872
156	0x3f27be70	0.6552496
157	0x3fbd93c9	1.4810725
158	0x3e1e6579	0.15468396
159	0x3e12735c	0.14301819
160	0xbcb68a17	-0.022282643
161	0x3d42356b	0.047414225
162	0x3daf3a9a	0.08556099
163	0x3d942612	0.07233824
164	0xbd633536	-0.055470668
165	0xbe0f0faa	-0.13970819
166	0xbba44258	-0.0050127916
167	0x3d7c6d39	0.0616276
168	0x3ec77b9f	0.38961503
169	0xbdf1fa7a	-0.11815353
170	0xbe3d2552	-0.18471268
171	0xbe97ff6b	-0.29687056
172	0xbe7b583b	-0.24545376
173	0xbe3cf75e	-0.18453738
174	0x3ec66004	0.3874513
175	0x3e3f65c2	0.18691161
176	0x3f088873	0.53333205
177	0x3fb3da37	1.4050969
178	0x3e5ec5b0	0.217551
179	0xbd7e1b55	-0.062037785
180	0xbe563d53	-0.20921831
181	0xbe85d0ad	-0.2613577
182	0x3ca86c75	0.020559529
183	0xbd267078	-0.040634602
184	0x3b9e3c47	0.004828963
185	0x3d3d15ed	0.04616349
186	0x3ce0d0bb	0.02744328
187	0x3cd5173a	0.026012052
188	0xbc3a82a6	-0.011383688
189	0x3db6ecaa	0.08931859
190	0xbd825c53	-0.06365266
191	0x3cc0d1bc	0.02353751
192	0x3e243744	0.16036707
193	0x3eb96080	0.36206436
194	0x3f149952	0.5804645
195	0xbd34f5ba	-0.044179656
196	0x3cc3deb5	0.023909906
197	0x3d70955e	0.058736198
198	0x3d574a37	0.05256101
199	0x3d791d73	0.0608191
200	0x3e35fbb5	0.177718
201	0x3e09ea9f	0.13468407
202	0x3e044ab5	0.12919123
203	0x3d10747d	0.035267342
204	0xbe104605	-0.1408921
205	0xbbe5a786	-0.0070084957
206	0x3dc5d7fc	0.096603364
207	0x3e3b7877	0.18307672
208	0x3e1a9edc	0.15099663
209	0x3e45a034	0.19299394
210	0xbcab9f90	-0.020950109
211	0xbda53c90	-0.08068192
212	0xbdba5b10	-0.090994
213	0xbcb504ab	-0.022096952
214	0x3dacf76c	0.084456295
215	0x3ea652a1	0.32484916
216	0xbf4d9fc1	-0.8032189
217	0xbf631946	-0.8871044
218	0xbfbc530f	-1.4712847
219	0xc057045e	-3.3596416
220	0x3d638bdc	0.055553302
221	0x3c908a21	0.01764399
222	0x3d9391e4	0.07205561
223	0x3ca34eac	0.019934975
224	0xb9fb5e45	-0.00047944687
225	0x3c9fd2b6	0.019509654
226	0xbd7e2ba7	-0.06205335
227	0x3ec39e48	0.38206697
228	0xbef58ddd	-0.47959796
229	0xbf8a78dd	-1.0818135
230	0xbf1eec66	-0.62079465
231	0xc062996c	-3.5406141
232	0x3e25661c	0.16152233
233	0x3e006738	0.12539375
234	0x3db42fe3	0.08798196
235	0x3dd6f33c	0.10495612
236	0xbd10b213	-0.035326075
237	0x3cc76b6e	0.024343219
238	0x3e1a6cd9	0.15080585
239	0x3e08727e	0.13324925
240	0xbb0c0dda	-0.002137056
241	0xbd7325e3	-0.059362303
242	0x3dc010dc	0.09378216
243	0x3e2c5ef9	0.16833104
244	0x3d4027ab	0.04691283
245	0x3d44a5e1	0.048009757
246	0x3d86bd01	0.065790184
247	0xbd02ba64	-0.031916037
248	0x3e82ab74	0.25521433
249	0x3de18f0d	0.11013613
250	0x3d8888f5	0.066667475
251	0x3d285bb6	0.041103087
252	0x3e124167	0.14282762
253	0x3dc80245	0.09766058
254	0x3e627083	0.22113232
255	0x3dcdb527	0.10044318

fc0.bias f4 [20]
0	0x3e89ac4a	0.2688926
1	0xbe5f8d8c	-0.2183134
2	0x3c5c02c5	0.013428395
3	0xbe3be05e	-0.18347308
4	0x3dfb5d4f	0.122736566
5	0xbe1eaef7	-0.15496431
6	0xbc9a5889	-0.018841045
7	0x3dbc0685	0.09180931
8	0x3e103932	0.14084318
9	0xbd3e43d7	-0.046451416
10	0xbdd87d63	-0.105707906
11	0x3e1db07e	0.15399358
12	0x3d2f1996	0.04274901
13	0x3e5f774a	0.21822849
14	0x3e32f9eb	0.17478149
15	0x3c1defc7	0.009639687
16	0x3d06effe	0.032943718
17	0x3ea4c667	0.3218262
18	0xbc35dc0e	-0.011099828
19	0x3dff7421	0.12473322

fc1.weight f4 [15, 20]
0	0x3e57eec4	0.21087176
1	0xbe89e4b6	-0.26932305
2	0x3de58ba9	0.11208279
3	0x3e681db9	0.22667588
4	0x3e36ae51	0.17839934
5	0xbec4a9da	-0.38410836
6	0x3e2bbafe	0.1677055
7	0x3e859ffd	0.26098624
8	0xbfaa803c	-1.3320384
9	0xbece125a	-0.40248376
10	0xbe694e4b	-0.22783773
11	0x3dc48dd3	0.09597363
12	0x3e233bec	0.15940827
13	0x3cfd5b32	0.030927274
14	0xbe47c138	-0.19507301
15	0xbd261845	-0.04055049
16	0xbf3fe0e9	-0.7495256
17	0x3e4507f6	0.19241318
18	0xbeed1fa6	-0.46313208
19	0xbe925295	-0.2857863
20	0x3d8577e9	0.06517012
21	0xbe39fca3	-0.1816278
22	0xbc9e2fb6	-0.01930986
23	0x3d3bb7ae	0.045829467
24	0x3eaf5e7f	0.34251782
25	0x3f90f296	1.1324031
26	0x3dac1e82	0.084042564
27	0xbefe1d53	-0.49631748
28	0xbeb2a6d9	-0.3489292
29	0xbe8225b5	-0.25419393
30	0xbe694b15	-0.22782548
31	0x3e306d8e	0.17229292
32	0xbf294271	-0.66117007
33	0x3e4d44d8	0.20045793
34	0x3d5e8b4b	0.05433206
35	0x3e725eb2	0.23668936
36	0x3e81887e	0.25299448
37	0x3e300b58	0.17191827
38	0xbc1a8149	-0.009430238
39	0x3f672630	0.90292645
40	0x3e7c1be3	0.24620013
41	0xbd2c4dad	-0.042066265
42	0xbebd22ac	-0.36940515
43	0x3ec756b3	0.38933334
44	0xbd73093b	-0.059334975
45	0xbeb099eb	-0.3449243
46	0x3e99d0c1	0.3004208
47	0x3dc7cffe	0.09756468
48	0x3ef88ef7	0.48546574
49	0x3d43ded2	0.04781992
50	0x3e83870e	0.25688976
51	0x3f0a1aeb	0.53947324
52	0xbe85e86a	-0.2615388
53	0xbdf65257	-0.12027424
54	0xbdacbe28	-0.08434707
55	0x3cce2a45	0.02516664
56	0x3e8baa7d	0.2727851
57	0xbd1f22b4	-0.038851455
58	0xbd918816	-0.071060345
59	0xbf0af761	-0.5428372
60	0x3ea1229a	0.3147171
61	0xbe437c28	-0.1909033
62	0x3dacbc1a	0.08434315
63	0x3d1aeacb	0.037821572
64	0x3eb13ac8	0.3461516
65	0xbf5d7f33	-0.86522216
66	0x3d9f336d	0.077734806
67	0x3e1fb4ce	0.15596315
68	0x3f730928	0.94935846
69	0xbe9d6955	-0.30744424
70	0x3f1129bf	0.56704324
71	0x3e3a377f	0.18185233
72	0x3e4b410a	0.19849029
73	0x3e82fc8b	0.255833
74	0xbeb5f8b4	-0.35541308
75	0x3ee1b224	0.44081223
76	0x3d278ab6	0.04090377
77	0x3de47703	0.11155512
78	0xbf3b3f1e	-0.73143184
79	0xbec7b9ad	-0.39008847
80	0xbdd0d911	-0.10197652
81	0xbf0321c2	-0.51223385
82	0xbea4e097	-0.32202598
83	0x3e9acdad	0.30235043
84	0x3e9f6492	0.31131417
85	0x3f14e7cb	0.5816619
86	0x3ecf053c	0.4043368
87	0x3f1f3b8f	0.62200254
88	0xbf557cff	-0.83393854
89	0x3ec6973a	0.38787252
90	0xbe066a89	-0.13126577
91	0xbe2b94a4	-0.1675592
92	0x3e170bc9	0.1475059
93	0xbe07822f	-0.13233255
94	0x3d300a26	0.04297843
95	0x3d9c7c6a	0.076409176
96	0x3ef2e8ab	0.47443137
97	0xbeecc97b	-0.46247467
98	0x3eb96e9d	0.36217204
99	0x3f475239	0.77859837
100	0xbe76eba1	-0.24113323
101	0xbe8fcaac	-0.28084314
102	0xbf6805d0	-0.9063387
103	0x3ecdfcf8	0.40232062
104	0xbe3af3a6	-0.18257007
105	0xbd18790f	-0.037224825
106	0x3ea9ee14	0.33189452
107	0xbe3e7579	-0.185995
108	0x3f048f0b	0.51780766
109	0x3e7db9a3	0.24777846
110	0x3f32e69d	0.6988314
111	0xbb3fbd3f	-0.0029257087
112	0xbecb2b17	-0.39681312
113	0x3f15a43a	0.58453715
114	0x3e1c0073	0.15234546
115	0xbdd0fb6e	-0.102042064
116	0x3dbc8dfb	0.09206768
117	0xbb854b76	-0.0040678335
118	0x3e9cbb45	0.30611625
119	0x3eb8ec27	0.3611767
120	0x3de5e670	0.11225593
121	0xbe97a8c8	-0.29620957
122	0x3d20438b	0.039126914
123	0xbdd547b4	-0.10414067
124	0xbf52febc	-0.82419944
125	0x3ddc027b	0.107426606
126	0xbe4de2f2	-0.20106104
127	0xbf187daa	-0.5956675
128	0xbe43e777	-0.19131266
129	0xbe8398b5	-0.25702444
130	0x3f3172ac	0.693156
131	0xbe2147d5	-0.15750058
132	0x3ac7ae98	0.0015234528
133	0x3e9cce02	0.3062592
134	0xbf57f450	-0.84357166
135	0xbf3c64d0	-0.7359133
136	0xbda39706	-0.0798779
137	0xbe55b97f	-0.20871542
138	0xbe9a6330	-0.301538
139	0x3e0ee2f6	0.13953766
140	0xbe2ef2b5	-0.17084773
141	0xbe4d7ca3	-0.20067076
142	0xbe5e1087	-0.21685992
143	0xbcba7860	-0.022762477
144	0xbe9e8023	-0.30957136
145	0xbd4aa77e	-0.04947614
146	0x3c6cb8c2	0.014448347
147	0xbec91896	-0.3927657
148	0xbebc4d03	-0.36777505
149	0x3be78343	0.007065208
150	0x3dafc487	0.085824065
151	0xbe385358	-0.18000543
152	0xbd837a61	-0.06419826
153	0x3e9f408c	0.31103933
154	0x3e417edd	0.18896051
155	0xbc25e045	-0.010124271
156	0x3d10b844	0.03533198
157	0xbe8d8715	-0.27642122
158	0x3c1c3499	0.009534025
159	0x3cceca6c	0.025243007
160	0x3d2a53dc	0.04158388
161	0x3e0810b2	0.13287619
162	0xbe9a4e17	-0.30137703
163	0x3f026ce9	0.50947434
164	0xbee6f861	-0.45111373
165	0xbe2a574c	-0.16634864
166	0x3e7b1f85	0.24523742
167	0x3e7416a0	0.23836756
168	0x3f77c14e	0.96779335
169	0x3d823263	0.06357267
170	0x3f0dd439	0.5540195
171	0x3e48c64a	0.19606891
172	0x3e7b3c71	0.24534775
173	0xbc159d65	-0.009131764
174	0x3d3bcf22	0.045851834
175	0xbdfa581a	-0.12223835
176	0x3e17c584	0.1482144
177	0x3e44f545	0.19234188
178	0x3ec2c709	0.38042477
179	0xbc4c0a3b	-0.012453611
180	0xbe431db9	-0.19054307
181	0xbe0b045c	-0.13575882
182	0x3d156997	0.03647765
183	0xbdd6fa91	-0.104970105
184	0x3dcad2f4	0.09903517
185	0x3d002b55	0.031291325
186	0xbdfdb219	-0.12387485
187	0xbddf75be	-0.109111294
188	0xbe2e014e	-0.16992685
189	0xbe655b2d	-0.22398062
190	0x3cb9d533	0.02268467
191	0x3cd87278	0.02642177
192	0xbd634395	-0.055484373
193	0x3e965910	0.29364824
194	0xbe405950	-0.1878407
195	0x3d807408	0.06272131
196	0xbd4eb5ba	-0.050466277
197	0x3dc9b373	0.0984868
198	0xbe3e33d3	-0.18574457
199	0x3bfba05b	0.007679028
200	0xbe2625d4	-0.16225368
201	0xbcbf77e6	-0.023372602
202	0xbf0d446a	-0.55182517
203	0xbe3b2eb2	-0.18279532
204	0xbe8e6a15	-0.2781531
205	0x3e8f0e61	0.27940658
206	0xbd3339a3	-0.04375614
207	0xbd26a915	-0.040688593
208	0x3f17c26c	0.5928104
209	0x3e0b4264	0.13599545
210	0x3f2841e7	0.6572556
211	0x3e5ec352	0.21754196
212	0x3f03e687	0.5152363
213	0x3e0edbfc	0.13951105
214	0x3da10e45	0.0786405
215	0x3e062657	0.13100563
216	0x3d81b7eb	0.06333908
217	0xbe94ff79	-0.2910116
218	0xbd588d83	-0.05286933
219	0x3ec3cb42	0.3824101
220	0x3e18dc16	0.14927706
221	0xbebe826a	-0.37208873
222	0x3e1a38d1	0.15060736
223	0x3db34087	0.08752542
224	0xbe0eb091	-0.13934542
225	0xbf03304c	-0.5124557
226	0xbef7f246	-0.48427027
227	0x3f0fbe5a	0.5614983
228	0xbf623259	-0.88358074
229	0xbe17cee1	-0.14825012
230	0xbdf78526	-0.12085943
231	0xbe32edf5	-0.17473586
232	0x3ecd4781	0.40093616
233	0x3ebf141d	0.37320033
234	0xbdac59af	-0.08415543
235	0x3d6817f7	0.05666348
236	0xbebfae52	-0.37437683
237	0x3e8f89e8	0.28034902
238	0xbf06833c	-0.52544
239	0x3e9abf0b	0.3022388
240	0xbcb14f14	-0.021644153
241	0xbe826291	-0.25465825
242	0xbdbe07b9	-0.09278817
243	0x3d2ee61d	0.042699922
244	0xbf018d83	-0.50606555
245	0xbf160072	-0.5859443
246	0xbecd928b	-0.40150866
247	0x39ad10d0	0.00033009658
248	0x3e096f4e	0.13421366
249	0x3e1aba56	0.15110144
250	0xbf0d7bf5	-0.5526727
251	0xbf497eb1	-0.7870894
252	0x3e6d7bb4	0.2319172
253	0x3e78d1e1	0.24298812
254	0x3f064897	0.52454513
255	0x3d9eee68	0.07760316

fc1.bias f4 [15]
0	0xbe9a4a2c	-0.30134714
1	0x3ecfb2d3	0.4056612
2	0x3e3ef6dd	0.18648858
3	0x3dbba20d	0.09161768
4	0xbdfe5337	-0.12418216
5	0xbed80c92	-0.4219709
6	0xbe022b79	-0.12711896
7	0xbc981e43	-0.018569117
8	0xbd5fdaf1	-0.05465216
9	0xbe65970e	-0.22420904
10	0xbe08dc81	-0.13365366
11	0x3de83fc5	0.11340288
12	0xbde4881b	-0.111587726
13	0x3de1e463	0.110298894
14	0x3d6a738a	0.057239093

fc2.weight f4 [8, 15]
0	0xbedc4497	-0.4302108
1	0x3ee423fc	0.44558704
2	0x3ec8cfa4	0.39220917
3	0xbdf24304	-0.118291885
4	0x3ecd6edc	0.40123641
5	0x401f2db0	2.4871635
6	0xbf717b77	-0.9432902
7	0xbe7b9332	-0.2456787
8	0x3e57078b	0.20998971
9	0xbe166761	-0.14687873
10	0x3db32f5d	0.08749268
11	0xbe674a18	-0.22586858
12	0xbe3dc566	-0.18532333
13	0xbebfeece	-0.3748688
14	0x3e6b058c	0.22951335
15	0xbeb6d09e	-0.35706037
16	0x3ec9fd8d	0.39451256
17	0xbeaa3fff	-0.3325195
18	0xbd95f746	-0.07322554
19	0x3f01cbbb	0.50701493
20	0xbfa8a766	-1.3176086
21	0x3d09d16e	0.033646993
22	0x3e469f51	0.19396712
23	0x3ee3dd11	0.44504598
24	0x3e4bcc65	0.19902189
25	0xbf212dc7	-0.62960476
26	0xbebadea7	-0.36497995
27	0x3ec121c8	0.37721086
28	0xbf56af55	-0.83861285
29	0x3efc8768	0.49322057
30	0xbf046e7f	-0.51731104
31	0x3ea59149	0.32337406
32	0x3ee26f65	0.44225612
33	0x3d5bdd99	0.05367813
34	0x3f2fce2b	0.6867396
35	0x4014acaa	2.3230386
36	0xbf3a55d0	-0.7278719
37	0xbd8c3b1c	-0.06847212
38	0xbe0c324d	-0.13691063
39	0x3d840228	0.06445724
40	0x3df14704	0.11781123
41	0x3d4c8ac5	0.04993703
42	0xbe860013	-0.26171932
43	0xbe86772c	-0.26262796
44	0x3e87e86a	0.26544505
45	0xbd4da2bb	-0.05020402
46	0x3e80ac6a	0.25131541
47	0x3f0e0e38	0.55490446
48	0xbe48c93f	-0.1960802
49	0x3f38473b	0.7198369
50	0x4011648f	2.2717626
51	0xbecbd6a4	-0.39812195
52	0x3e719b7a	0.23594466
53	0x3e41cac4	0.18925005
54	0xbd9c3da9	-0.07628948
55	0x3d572d23	0.05253328
56	0x3cf9ad15	0.03047804
57	0xbe667623	-0.22506003
58	0xbf5f7f1d	-0.87303334
59	0x3e86608c	0.26245534
60	0xbdbcf3fe	-0.09226225
61	0x3ec17954	0.3778788
62	0xbea31a10	-0.31855822
63	0xbf736096	-0.95069253
64	0x3f68afa7	0.90893024
65	0xbfadc9b7	-1.3577183
66	0x3c9d360c	0.01919081
67	0x3ea5519b	0.32288823
68	0xbfb23d32	-1.3924925
69	0x3dc2622c	0.09491381
70	0xbfb3d3dc	-1.4049029
71	0xbe9f9c0c	-0.31173742
72	0xbe17af51	-0.14812972
73	0xbf63ff5e	-0.89061534
74	0x3e7bf141	0.2460375
75	0x3ec6333d	0.38710967
76	0x3ec69df9	0.387924
77	0xbdf27dd5	-0.11840407
78	0xbe80b903	-0.25141153
79	0x3dd36609	0.10322196
80	0x3ff70402	1.9298098
81	0xbebac3dc	-0.36477554
82	0x3df685fe	0.12037276
83	0x3e095f1b	0.13415186
84	0x3e03a4f9	0.12855901
85	0xbdc410cd	-0.09573517
86	0xbf0c291d	-0.54750234
87	0xbd50b910	-0.05095774
88	0x3f92f586	1.1481178
89	0x3d137034	0.035995677
90	0xbe26f55f	-0.16304539
91	0x3e649c58	0.22325265
92	0xbea42a8f	-0.3206372
93	0xbf103c2a	-0.56341803
94	0xbd80e79c	-0.06294176
95	0x3f2abc14	0.66693234
96	0xbecc86ac	-0.39946496
97	0x3da33192	0.07968439
98	0x3cd29621	0.025706353
99	0x3e7f456b	0.24928825
100	0x3f3471f5	0.70486385
101	0xbdefde78	-0.117123544
102	0xbe2b9631	-0.16756512
103	0x3f73edc9	0.95284706
104	0xbeba0f70	-0.36339903
105	0x3d5c0bd5	0.05372222
106	0x3e7bad06	0.24577722
107	0x3f2af505	0.6678012
108	0xbe1ebcba	-0.15501681
109	0xbd8345f3	-0.06409826
110	0x3ff030d9	1.8764907
111	0xbe8a8341	-0.27053264
112	0xbe18f7f1	-0.14938332
113	0x3ec80f74	0.3907429
114	0xbd1f1e71	-0.03884739
115	0x3f4d0048	0.80078554
116	0x3e2e3ee3	0.17016177
117	0xbe9ff440	-0.31241035
118	0x3f2c40b0	0.67286205
119	0xbe0a316a	-0.13495412

fc2.bias f4 [8]
0	0x3dc0d660	0.09415889
1	0x3ea9ae3f	0.33140752
2	0x3db5d6d1	0.088788636
3	0xbe8901a9	-0.2675908
4	0xbcbdba91	-0.02316025
5	0x3f055bc9	0.5209318
6	0x3f7ecae6	0.9952835
7	0x3ebdaebc	0.37047374

output.weight f4 [4, 8]
0	0x3e7fd701	0.24984361
1	0xbf044547	-0.5166821
2	0x3e3ead40	0.18620777
3	0x3da0fec7	0.07861095
4	0xbf1fcc7f	-0.6242141
5	0x3d42ecf7	0.04758927
6	0x3e9da0bb	0.3078669
7	0x3e4a0df7	0.1973189
8	0xbebe28ae	-0.3714041
9	0xbf0d21fe	-0.5512999
10	0xbdc56e84	-0.0964022
11	0xbeb242b2	-0.3481651
12	0xc0a8ddf0	-5.277092
13	0xbfdb60dd	-1.7138935
14	0xc0736e6b	-3.8036144
15	0xbe9d2e53	-0.30699405
16	0xbdd42962	-0.10359456
17	0x3f17bf4c	0.5927627
18	0xbdfe0c4f	-0.124046914
19	0xbe4bc83f	-0.19900607
20	0x3fa1013d	1.2578503
21	0xbe40fa16	-0.188454
22	0xbed1221a	-0.4084633
23	0xbf0feaba	-0.5621754
24	0xbf0655df	-0.5247478
25	0xbf33d710	-0.70250034
26	0xbf25a872	-0.6471015
27	0xbfbf7d38	-1.4960089
28	0xc09124a3	-4.5357223
29	0x3e090d2a	0.13383928
30	0x3fb283c8	1.3946466
31	0x3e15b033	0.14617996

output.bias f4 [4]
0	0xbd0db072	-0.0345921
1	0x3e8feb4a	0.281092
2	0xbee3cd5b	-0.4449261
3	0x3ef29e21	0.47386268

exp_avg f4 [20, 37]
0	0x37755b19	1.4624348e-05
1	0x39cbf2c3	0.0003890005
2	0xb8bda5e4	-9.043122e-05
3	0xb84cada7	-4.8799116e-05
4	0x39b40e71	0.00034343035
5	0x39ad0ed0	0.00033008168
6	0x384d7171	4.898146e-05
7	0x3912f3c9	0.00014014462
8	0xb9859875	-0.00025481326
9	0x39729707	0.0002313518
10	0xb8aaf656	-8.152115e-05
11	0xb86f2202	-5.7013713e-05
12	0x39a1b734	0.0003084481
13	0x38c62436	9.4481205e-05
14	0x372598d4	9.8703495e-06
15	0x39017c72	0.00012348758
16	0x3837fc8e	4.386581e-05
17	0x3872f6e2	5.7927224e-05
18	0x38240e27	3.9113827e-05
19	0x381a3339	3.6764166e-05
20	0xb98a6c1f	-0.00026401968
21	0xb86ffcb7	-5.72174e-05
22	0x38e45daf	0.00010889337
23	0x39f9f2b6	0.00047673815
24	0xb7c7e68b	-2.3830004e-05
25	0xb648c069	-2.991432e-06
26	0xb7ddf4b3	-2.64592e-05
27	0x3927f48e	0.00016017465
28	0x390c29df	0.00013367039
29	0xb83d0029	-4.506126e-05
30	0x39372675	0.00017466566
31	0x38bc2b5b	8.972614e-05
32	0xb8035c28	-3.131866e-05
33	0x38035eee	3.1321244e-05
34	0x390438b2	0.00012609622
35	0x39d4d265	0.00040592547
36	0x3a692f18	0.0008895262
37	0xb91def9d	-0.0001506195
38	0x37a807d0	2.0030799e-05
39	0xb85ee299	-5.313996e-05
40	0xb83b5056	-4.4659093e-05
41	0xb984826e	-0.0002527418
42	0xb9ccd26a	-0.00039066683
43	0x3938df34	0.00017630757
44	0xb75f9441	-1.3326354e-05
45	0xb53c7b6a	-7.021505e-07
46	0x3660d07b	3.3499953e-06
47	0xb846d468	-4.7404697e-05
48	0xb95bf7b2	-0.00020977741
49	0xb669f2e4	-3.4861087e-06
50	0x380764da	3.2280434e-05
51	0xb9277d91	-0.00015973138
52	0xb8c40849	-9.3475515e-05
53	0x388abfe4	6.616095e-05
54	0xb8bacf4e	-8.907785e-05
55	0xb8eadf0d	-0.00011199536
56	0xb8af9032	-8.371509e-05
57	0xb9489928	-0.00019130541
58	0x37479104	1.1895088e-05
59	0xb8e1ae6d	-0.000107613254
60	0x3875efc2	5.8635844e-05
61	0x37d500e8	2.5392e-05
62	0xb790994e	-1.7237526e-05
63	0x38cf0d63	9.873023e-05
64	0xb918b8f1	-0.00014564746
65	0xb92c35f5	-0.00016423299
66	0xb84d3ca9	-4.8932303e-05
67	0xb9af5aa2	-0.00033446128
68	0x38c8e5b1	9.5795265e-05
69	0xb6a64edf	-4.9563673e-06
70	0x377f981a	1.5234598e-05
71	0x37a9e5f5	2.0253452e-05
72	0x3915311d	0.00014228043
73	0xbb3cbb33	-0.0028798103
74	0x394e549b	0.00019677209
75	0xb95656cc	-0.00020440965
76	0xb7643b9b	-1.3603737e-05
77	0xb7594c0e	-1.2951916e-05
78	0x39191a41	0.00014600997
79	0x39838556	0.0002508561
80	0xb91f4ac7	-0.00015191278
81	0xb92f0949	-0.0001669276
82	0x380dbaf5	3.3791137e-05
83	0xb946cb8a	-0.00018958576
84	0x39e0045e	0.00042727863
85	0xb922e796	-0.00015535796
86	0xb93c9222	-0.00017983516
87	0xb90469af	-0.00012627871
88	0x391a8a09	0.00014738007
89	0xb895f22a	-7.14998e-05
90	0xb961ee62	-0.00021546477
91	0xb88b6721	-6.647246e-05
92	0x39a7602f	0.00031924385
93	0xb941427d	-0.00018430683
94	0xb881b57e	-6.185005e-05
95	0xb8175d04	-3.6087833e-05
96	0x37ac0b21	2.050918e-05
97	0x383557d0	4.3235545e-05
98	0x3766f2c5	1.37655925e-05
99	0x396a98cd	0.00022372902
100	0xb9e64494	-0.00043920113
101	0x36fbdc2a	7.5060134e-06
102	0x393636cf	0.0001737729
103	0xb988f51e	-0.00026122568
104	0x38c62e79	9.450032e-05
105	0xb925b447	-0.00015802785
106	0x387fd9b2	6.0999482e-05
107	0xb804d028	-3.1665113e-05
108	0xb8d1543e	-9.981588e-05
109	0xb9e56e55	-0.00043760487
110	0x3a8b66a8	0.0010635452
111	0x80000004	-6e-45
112	0x80000004	-6e-45
113	0x00000004	6e-45
114	0x00000004	6e-45
115	0x80000004	-6e-45
116	0x00000004	6e-45
117	0x80000004	-6e-45
118	0x00000004	6e-45
119	0x80000004	-6e-45
120	0x00000004	6e-45
121	0x80000004	-6e-45
122	0x00000004	6e-45
123	0x00000004	6e-45
124	0x00000004	6e-45
125	0x00000004	6e-45
126	0x80000004	-6e-45
127	0x80000004	-6e-45
128	0x00000004	6e-45
129	0x00000004	6e-45
130	0x00000004	6e-45
131	0x00000004	6e-45
132	0x00000004	6e-45
133	0x00000004	6e-45
134	0x80000004	-6e-45
135	0x00000004	6e-45
136	0x00000004	6e-45
137	0x00000004	6e-45
138	0x80000004	-6e-45
139	0x80000004	-6e-45
140	0x00000004	6e-45
141	0x00000004	6e-45
142	0x00000004	6e-45
143	0x00000004	6e-45
144	0x80000004	-6e-45
145	0x00000004	6e-45
146	0x80000004	-6e-45
147	0x80000004	-6e-45
148	0x39f25189	0.00046218585
149	0x38b8c3f6	8.810304e-05
150	0x39605003	0.00021392111
151	0x38c7f3ba	9.534457e-05
152	0x39d97091	0.00041473334
153	0x3a0837fd	0.0005196331
154	0x399031ce	0.00027502928
155	0x398c1561	0.0002671881
156	0xb9541f63	-0.00020229588
157	0x39abf5b0	0.00032798713
158	0x38fb7912	0.00011991164
159	0x38ff868f	0.00012184411
160	0x39bacfbd	0.00035631462
161	0x398917d2	0.00026148424
162	0x399fb01b	0.00030458052
163	0x39bc2141	0.0003588293
164	0x38b23d93	8.4991705e-05
165	0x38991525	7.299547e-05
166	0x39b3b189	0.00034273815
167	0x3942e6bf	0.00018587241
168	0x39fc4196	0.0004811405
169	0x3873c4b8	5.8118923e-05
170	0x38a09f9f	7.659126e-05
171	0x397f8ac5	0.00024370391
172	0x3949209b	0.00019181
173	0x394a5849	0.0001929711
174	0x38d70fa4	0.00010254912
175	0x3962fa1c	0.00021646213
176	0x39b63a5c	0.00034757226
177	0x3927298c	0.00015941839
178	0x3a389203	0.00070408004
179	0x39274107	0.00015950586
180	0xb8229444	-3.8761893e-05
181	0x3811abbb	3.473063e-05
182	0x3942f1b8	0.00018591329
183	0x39668265	0.00021983085
184	0x3ba88922	0.0051433006
185	0x3ac2e22c	0.001486843
186	0xb9bf2597	-0.00036458366
187	0x3a2482a4	0.00062755705
188	0x3862b9e2	5.4055716e-05
189	0x39f3d175	0.0004650463
190	0x3a9bc358	0.0011883778
191	0x384c94df	4.8776037e-05
192	0x39e5d5a2	0.00043837453
193	0x390693f9	0.0001283436
194	0x39643f85	0.00021767437
195	0x395308c9	0.00020125801
196	0x3959ddb0	0.00020777318
197	0x3a3ca56b	0.000719628
198	0x3a3100c6	0.00067521294
199	0x3988f084	0.0002611914
200	0x3aed4c97	0.0018104491
201	0xba28ab9d	-0.0006434264
202	0x39825314	0.0002485743
203	0x39cb916a	0.0003882752
204	0x3a4b30c3	0.00077511015
205	0x3ad9c7b7	0.0016615306
206	0xb8c4acf7	-9.3782255e-05
207	0xb953eab7	-0.00020209966
208	0x39e5c15e	0.00043822353
209	0x39af4b75	0.0003343482
210	0x39d662bf	0.00040890832
211	0x399e3b20	0.0003018016
212	0x39a62c9d	0.00031695227
213	0x3a4b7a93	0.00077621004
214	0x3a452f98	0.00075220456
215	0x3aec6ef2	0.0018038435
216	0x00000004	6e-45
217	0x32f7d5bb	2.8851778e-08
218	0x00000004	6e-45
219	0x38d8110a	0.000103028564
220	0x3943e76a	0.00018682858
221	0x3c2b0945	0.010439222
222	0xb99304b7	-0.00028041538
223	0x39a17b1a	0.0003080003
224	0xb884f183	-6.3392356e-05
225	0xb7e9e8e3	-2.788421e-05
226	0x38f87227	0.00011846824
227	0xb930cfa9	-0.00016862027
228	0xb87a67d9	-5.970136e-05
229	0x00000004	6e-45
230	0x392ca084	0.00016462995
231	0x380c6ca8	3.3479795e-05
232	0xb8afb0c0	-8.3775725e-05
233	0x369be448	4.6459354e-06
234	0x3922badf	0.00015519139
235	0xb9128ab7	-0.0001397532
236	0xb7c1783f	-2.3063387e-05
237	0xb89fab23	-7.6135875e-05
238	0x38d106dc	9.967174e-05
239	0x38b544e9	8.643588e-05
240	0xb9361969	-0.00017366339
241	0x381b6cfb	3.7056376e-05
242	0xb9851e00	-0.0002539009
243	0x36a18e52	4.814742e-06
244	0x3914b608	0.00014182192
245	0x3836c1c1	4.357263e-05
246	0xb71bc26b	-9.283986e-06
247	0xb95863aa	-0.00020636493
248	0x38e50b83	0.00010921715
249	0xb7be8e81	-2.2716124e-05
250	0x386b9a7f	5.617225e-05
251	0x3849b768	4.8092945e-05
252	0xb9545857	-0.00020250805
253	0xb7fa5484	-2.9841678e-05
254	0x392da817	0.00016561184
255	0x364c6e07	3.0462413e-06
