examples/navigation/DDQN_20_15_8/checkpoint.pth (torch, 23263 bytes, 32 tensors)

fc0.weight f4 [20, 37]
000000 7d 2b 21 3e be 02 63 3e ef 23 01 bd 4a 7d 24 be
       0.15739246 0.22169015 -0.03152841 -0.16063419
000010 d0 f4 09 3f a3 ce 87 3c cf 0b a4 3e 04 9f 21 be
       0.5388918 0.016578024 0.3204026 -0.15783316
000020 5a 34 99 bc 09 8c 02 be b0 18 0e be c7 1e ed bd
       -0.018701721 -0.12748732 -0.13876605 -0.11578136
000030 58 76 60 3e 87 7c f5 bd 8c da 01 be 8b 69 74 3e
       0.21920145 -0.11986642 -0.12681025 0.23868386
000040 0c 1b 8f bf 5d ac 52 bf 45 c0 04 bf b8 c2 6f 3e
       -1.1180129 -0.82294255 -0.5185588 0.23414123
000050 be 0c 6f be 8c b3 8f bd 3e 3e b3 bc 81 93 00 3c
       -0.23344705 -0.07016668 -0.021880265 0.007847668
000060 65 17 c3 3d d4 a8 76 3e f1 ce 2f be 91 b0 aa be
       0.095259465 0.2408784 -0.17168786 -0.33337834
000070 42 0e ba bd 80 59 0e 3d b2 79 e9 be 46 94 eb 3e
       -0.09084751 0.034753323 -0.4560066 0.4601156
000080 9c fa 77 bd b2 29 7c 3d 12 f7 e2 bb f5 75 74 be
       -0.060541734 0.0615632 -0.0069264257 -0.23873122
000090 28 14 98 bd e6 cd c0 3d 26 12 48 3c 64 83 74 3d
       -0.074257195 0.09414272 0.012211358 0.059695616
0000a0 f0 9b b2 3d cb 77 d4 3d bd 9c 17 3f 41 c8 3b be
       0.08721149 0.10374411 0.5922354 -0.1833811
0000b0 cf 71 ae bd 59 e1 58 bf 57 7c 4a c0 39 ae c0 3d
       -0.08517801 -0.84718853 -3.163839 0.0940823
0000c0 60 6d b3 3d 4b 59 ba 3d ee 08 6a 3d 4a 66 04 3e
       0.08761096 0.090990625 0.057137422 0.12929645
0000d0 6b fc 76 bd f7 89 e5 3c a5 d5 9e 3d 92 1b a5 bb
       -0.06029932 0.028019888 0.07755593 -0.005038687
0000e0 51 9a c0 3d 15 34 db 3d a4 af bf 3d 06 6d 15 3e
       0.094044335 0.10703293 0.09359673 0.1459237
0000f0 29 ff b5 3d 82 47 61 3d b1 a1 30 3e d6 4f c4 3e
       0.088865586 0.054999836 0.1724918 0.3834216
000100 c4 0a 63 3e e7 59 41 3d cc 6b c2 be ae d6 44 3d
       0.22172076 0.04720488 -0.37972867 0.048056297
000110 6f 4d 5f bd 9c fb 2e 3d a2 09 46 3d 8d 5c b7 3d
       -0.054517206 0.042720422 0.04834903 0.089531995
000120 8e 73 43 bc 1a 05 91 3c 3e c8 39 3e 8f 0a 56 3d
       -0.011929406 0.017702628 0.18142793 0.052256163
000130 25 cf 1e 3e ce 4b 83 3e 88 c4 46 3e 5b ca 0c 3e
       0.15508707 0.25643772 0.19410908 0.13749067
000140 6f 66 6e be 3f 0d 02 bd e0 6c ed be ad 93 25 bf
       -0.23281263 -0.031750914 -0.46372128 -0.6467846
000150 c2 74 6e bd 6a b1 47 be 4b 88 f2 3c 39 c6 a4 3e
       -0.058216818 -0.19501272 0.029606005 0.32182482
000160 15 f9 01 3f fc ad 0c 3e c4 05 14 3e 66 f6 48 3e
       0.50770694 0.13738245 0.14455324 0.19625244
000170 13 94 38 3e ba a9 ff 3c 82 6f ec bd eb 73 b3 3d
       0.18025236 0.031208862 -0.11544706 0.08762344
000180 10 3b 19 3e 62 f3 d7 3e ca 61 12 3f 20 8a c5 bb
       0.14963937 0.42177874 0.57180464 -0.0060284287
000190 74 58 7f 3e 2b 44 4a 3e b2 77 9a bd 98 2c b5 be
       0.24936086 0.19752567 -0.07542361 -0.35385585
0001a0 a6 43 b4 bd 16 1e 9d bc d9 7a 50 3e 20 da c9 3e
       -0.088019654 -0.019179385 0.20359363 0.3942423
0001b0 0f 1c 5f 3f 32 37 96 be e5 89 b1 3d 15 11 d5 3c
       0.8715219 -0.29338986 0.086688794 0.026009122
0001c0 b7 b2 2d bd c3 80 a3 bd 2c 49 a2 3d 78 75 fd 3d
       -0.042406764 -0.07983544 0.07924113 0.12375921
0001d0 33 89 4d 3f a9 0d aa bf 45 57 2c bf ae 11 85 bf
       0.80287474 -1.3285419 -0.6732066 -1.039602
0001e0 44 fc 3c c0 d7 fe 0a 3e 4a 1b 1d 3e 28 a6 f7 3c
       -2.952897 0.13573776 0.15342441 0.030230597
0001f0 fe 1c f4 3c 1a 3c c0 bd a2 05 4e 3d 57 8b 23 3d
       0.02979898 -0.093864635 0.05029834 0.039927807
000200 83 50 c0 bd 69 e8 91 3d c3 5b 13 3e c4 72 68 3c
       -0.093903564 0.07124407 0.14390473 0.0141875185
000210 b7 bf 99 3c cc 9a be 3a dc 0b 84 3b 2e 94 63 bd
       0.018768175 0.0014541983 0.004029734 -0.055561237
000220 6f 72 20 3e c3 a0 a6 3b 60 79 94 bc 24 58 47 bd
       0.15668653 0.0050850823 -0.018124282 -0.04866804
000230 0d b6 e3 3d 7c a5 1c be 66 19 12 bd d2 06 32 be
       0.11118708 -0.15297502 -0.035668753 -0.17385414
000240 99 c5 76 be 04 a1 9b be 25 92 fd bc 5a fe f2 3c
       -0.24098815 -0.30396283 -0.030953476 0.0296623
000250 b3 90 cd 3d 18 a1 2b 3d 12 4f f0 3c 2f cc 20 3e
       0.10037365 0.041901678 0.029334579 0.1570289
000260 19 92 b8 3d 06 7e 0e bf 0b 33 f1 3e c8 b9 3e 3f
       0.09012241 -0.55661047 0.47109255 0.7450223
000270 48 d3 94 3f 74 3c df 3f a4 9d 0d 3e cf fe 09 3e
       1.1626978 1.7440324 0.13829666 0.13476108
000280 bc b2 7f bc de 73 94 3d 86 68 10 be 25 1c 27 bc
       -0.015606578 0.072486624 -0.14102373 -0.010199581
000290 4d 9a ef 3d 71 83 93 3d 6b b8 44 3c 71 38 a3 bd
       0.116993524 0.07202805 0.012006859 -0.0796975
0002a0 7c 2e 6b 3e b2 f4 e1 3d 92 74 10 3c aa 79 8d 3c
       0.22966951 0.11033 0.008816855 0.017269928
0002b0 e9 10 45 be c3 d2 e8 3b 3b 6d 85 3d 7e 36 44 3e
       -0.19244732 0.007105203 0.06514975 0.19161412
0002c0 af ff 2e ba d2 bb 9e be 65 b2 3d 3e ac 74 7a bd
       -0.0006675673 -0.3100267 0.18525083 -0.061146423
0002d0 3b a9 98 3d d8 80 29 bd 73 52 67 be 6b 85 42 bd
       0.07454153 -0.04138264 -0.22590046 -0.04749052
0002e0 cb 8b 84 bd 0a 57 47 bd 06 70 cb 3c 26 b7 58 be
       -0.06471976 -0.04866699 0.02483369 -0.21163616
0002f0 d3 b6 12 be a0 59 29 3e 54 4b 0d 3d 81 54 6e 3e
       -0.14327554 0.16538095 0.034495667 0.23274423
000300 19 5d 58 be 2d 48 8c 3e ce 43 b2 3e 3c 45 bf 3e
       -0.21129264 0.27398816 0.34817356 0.3735751
000310 e1 4f 55 bf 6a e2 3e be 46 ca 16 bf 3e 2e 27 bf
       -0.8332501 -0.18641058 -0.58902395 -0.65304935
000320 be 40 3f bd 6c 65 65 be 1d 46 b7 be cb 37 99 3d
       -0.046692602 -0.2240197 -0.3579568 0.07481345
000330 ee 2f 9d be 35 27 73 3d 68 49 61 3e 3a d7 b5 be
       -0.3070063 0.059363563 0.22000659 -0.35515767
000340 88 bf 0b bf d5 ad 5e bf f1 18 b9 be eb 9f ba bc
       -0.5458913 -0.86983997 -0.3615184 -0.022781333
000350 9e ba c1 bd 82 26 df be d3 72 a4 be 5c 03 50 bf
       -0.094594225 -0.43584067 -0.32118854 -0.81255126
000360 5b ee 93 3e 96 d6 a8 bd 1b 77 e9 bd ca e9 03 3f
       0.28892788 -0.08244054 -0.11399671 0.5152861
000370 68 7c 06 bf cd ce 30 bc 57 b7 2c bd 19 1e dc 3c
       -0.5253358 -0.010791493 -0.042167034 0.02686982
000380 75 c4 e9 bc fd 23 25 3d a4 70 03 3d 08 5f 99 3d
       -0.02853606 0.040317524 0.032089844 0.07488829
000390 cb 2a 55 3e 26 d8 56 3d 52 48 e7 3d 1b f7 bc bd
       0.20817105 0.05245223 0.11293091 -0.09226819
0003a0 55 34 a7 3c 46 a5 4c 3d d4 28 a0 3a 90 a5 b5 3d
       0.020410696 0.049962305 0.0012219199 0.08869469
0003b0 e2 9d 63 3c 34 97 16 3c 44 de f0 3c d8 65 73 3d
       0.013892623 0.009191323 0.02940286 0.059423298
0003c0 ea 44 1e 3e f7 85 25 3e a0 d5 18 bc bd 5e 01 3d
       0.15455976 0.16164385 -0.009328276 0.03158449
0003d0 2d e4 86 3c ce 3d ac 3d 5d df d4 3c b1 50 32 3f
       0.016466225 0.08410226 0.025985414 0.69654375
0003e0 a4 6a 6a bf 87 85 21 bf 3c 7c 2a bf c1 70 4f c0
       -0.9156897 -0.6309437 -0.66595817 -3.241257
0003f0 41 e0 cc 3c bc 4b f7 3c 0a 14 16 bc c6 17 13 3e
       0.025009276 0.03018748 -0.009160051 0.14364538

fc0.bias f4 [20]
000000 ab aa 35 be 3f d6 da bd bb a4 8b bc ae 9a d0 3e
       -0.17740886 -0.106853954 -0.017046323 0.4074301
000010 53 41 51 3e f6 f0 4b bd a2 c3 08 bc a3 8b 93 3d
       0.20435075 -0.049790345 -0.008347424 0.07204368
000020 ad 97 7d 3e c5 fc ca bd b5 1d 72 3e d9 83 6c be
       0.24764891 -0.09911493 0.23644145 -0.23097171
000030 6a ed 46 bb 86 9b 58 3e fe e1 88 3e 5d 6b 37 3e
       -0.0030353912 0.21153077 0.26734918 0.1791205
000040 fe 4b ce bd 59 da 9f 3d 8f c0 25 3e 7b 8c 13 3e
       -0.10073088 0.078053184 0.16186737 0.14409058

fc1.weight f4 [15, 20]
000000 c9 64 1b 3e 2b f1 23 3f e4 a6 77 3d da 9a 2b 3f
       0.15175165 0.6403987 0.060461894 0.6703316
000010 d2 d0 a5 be b2 25 b1 bd 04 25 d5 be f2 a1 64 3e
       -0.3238588 -0.08649768 -0.41629803 0.22327402
000020 91 55 c3 be d8 90 3d 3d 2a 98 51 bc af 41 24 3e
       -0.3815122 0.046280712 -0.012792626 0.16040681
000030 c0 77 25 bf 29 bb 4c bd 5d a1 15 be b7 55 97 3e
       -0.6463585 -0.049983177 -0.14612336 0.29557583
000040 a7 85 e6 be 63 78 15 bf cd 52 81 bc 26 b7 1b be
       -0.45023844 -0.5838682 -0.015786553 -0.15206584
000050 9a 96 64 bd f9 cf b2 3e 7f b8 c8 3d 95 54 8b 3e
       -0.055807687 0.34924296 0.09800815 0.27212968
000060 c8 36 cd bd b3 de 5b bc dd d6 0b bf ac e6 81 bd
       -0.10020214 -0.013419795 -0.5462473 -0.06342825
000070 b5 08 19 bf a3 dd 49 3e 43 ad a5 3d fc 2b 83 be
       -0.5977891 0.19713454 0.08089688 -0.25619495
000080 1e d9 15 3f 54 b4 63 3f 48 d8 f1 bb 9d 8b 93 3d
       0.5853442 0.88947034 -0.007380519 0.072043635
000090 52 96 bb 3b 5e e6 82 3d fa d9 bf 3d 9d de 2c 3d
       0.0057247067 0.06391595 0.093677476 0.042204488
0000a0 85 fb d1 be 0f 1e 26 bf 3c a4 8d bd 70 cd 58 be
       -0.41012207 -0.64889616 -0.06916091 -0.21172118
0000b0 07 2b 48 3e 93 0b 90 3e ba 89 5f bf 7f 50 e4 3d
       0.19547664 0.2813383 -0.8731953 0.11148166
0000c0 82 fe a0 bd 97 e6 ed 3e ae 60 cb 3c 7f 7d a2 bd
       -0.078610435 0.4646499 0.024826374 -0.07934093
0000d0 47 d7 a6 3f 32 eb b2 3f 43 6e 48 3f 9f 4c 20 be
       1.3034447 1.3978026 0.78293246 -0.15654229
0000e0 7f a3 4a be 42 80 4c be 05 d7 38 3e a3 d6 40 3f
       -0.19788931 -0.19970801 0.18050773 0.7532751
0000f0 c4 58 aa 3e eb 58 07 3e 43 10 1d be 36 44 79 be
       0.33270848 0.13217513 -0.15338235 -0.24342427
000100 9e 8b d1 3b 27 ef 06 be 6a e4 94 3c f6 3b 94 be
       0.0063948175 -0.13177167 0.018175323 -0.28951997
000110 3a 46 88 be 85 e2 39 be c6 a8 0e be a7 7c 1e 3c
       -0.2661608 -0.18152817 -0.1393157 0.009673274
000120 37 bf 11 3e 05 bc 0d 3b 51 10 9f 3d 78 8f f3 bd
       0.14233099 0.002162696 0.07766784 -0.11892599
000130 42 51 8f 3e bf f8 d0 be d4 d3 30 3e 58 93 7c 3d
       0.27991682 -0.40814778 0.17268306 0.061663955
000140 8c 3f 5a be 9b 28 fa bd 77 5d b0 be 0b 62 c8 bd
       -0.21313304 -0.12214776 -0.34446308 -0.09784325
000150 26 96 91 bd 89 15 d4 3b bb 3a 66 3e 60 83 8c be
       -0.07108717 0.0064722938 0.22483341 -0.2744398
000160 64 b8 d0 bd 75 b7 57 3e 5e 12 a7 3d 92 97 7c 3e
       -0.1019142 0.21066077 0.081578 0.24667194
000170 cc a7 89 3d f8 ca 8d be d0 9e 14 bf 71 4f b0 be
       0.06721458 -0.27693915 -0.5805483 -0.3443561
000180 5a e7 53 3e 50 90 28 bf f2 f6 53 3e 5d da a3 3d
       0.20693722 -0.65845203 0.20699671 0.08000634
000190 a4 c0 6c 3e 51 82 56 3f c9 c2 81 3d 35 8e 02 3f
       0.23120362 0.837926 0.063359804 0.5099824
0001a0 0a f5 bd be 92 33 4a bd c6 18 41 bc 67 88 02 3e
       -0.37101012 -0.049365588 -0.011785692 0.12747346
0001b0 6a 86 d1 bd 34 58 e8 3d 82 46 bb 3c 73 45 b9 3d
       -0.102307156 0.113449484 0.02286077 0.090464495
0001c0 e9 cc 10 bf 6d 3d 2a be e5 cb a5 3d 1d 9c 33 3e
       -0.5656267 -0.16624995 0.080955304 0.17540021
0001d0 76 2d 9f 3e 2b 93 73 be dd d9 04 3d 55 2f 6b 3d
       0.3108937 -0.23786609 0.032434333 0.057418186
0001e0 95 32 80 3c f9 f3 81 3f ec 3c c9 bd 6b 61 e3 3e
       0.01564912 1.015258 -0.09826073 0.44410262
0001f0 93 54 f9 be 51 8f 0b be 54 49 df 3d 33 c3 0a 3e
       -0.48697338 -0.1362889 0.10902658 0.13551025
000200 0f c7 0a bc 7b 7d 81 be c6 13 d5 bc 3c ad c5 3d
       -0.008470311 -0.25291047 -0.026010405 0.096521825
000210 6e 26 58 3e 02 33 ab bd 6a 50 d2 bc 01 dd 51 3e
       0.2110841 -0.08359338 -0.02567311 0.20494463
000220 ef b9 ba bd e9 2a ef be 14 54 ad bd 36 d7 0f bd
       -0.09117495 -0.46712425 -0.08463302 -0.03511735
000230 7b 67 b7 be 42 ed ba be 1e 7c e5 be 37 5f 18 3e
       -0.35821137 -0.36509138 -0.44821256 0.14880072
000240 33 45 2b be 60 69 8f 3e d6 e5 59 be 97 a6 10 bc
       -0.16725616 0.28010082 -0.21279082 -0.008828781
000250 13 30 9a bd 53 df 2e 3f b1 91 30 3d a2 59 2e be
       -0.07528701 0.68309516 0.043107692 -0.1702638
000260 f2 22 01 3f 04 12 75 3d fe 4b e8 3e 1b b1 16 be
       0.5044395 0.059831634 0.45370477 -0.14715998
000270 db 06 0d bf e6 de 37 be 8a 93 ef 3e 7a e5 9e 3f
       -0.55088586 -0.17956123 0.4679225 1.2413781
000280 75 d1 ac bf fd 3f 28 bf 5d 79 44 3d f0 2d 3c be
       -1.3501421 -0.6572264 0.047967304 -0.18376899
000290 16 85 10 3e a9 09 36 3e 75 87 2b 3f fd 76 85 be
       0.14113268 0.17777123 0.67003566 -0.26067343
0002a0 54 49 6d 3f 78 51 86 3e da b8 0c 3e ca 64 5c 3e
       0.92690015 0.2623403 0.1374239 0.21522823
0002b0 99 e5 15 3e e4 e7 8c bd 39 81 12 3e a9 69 0f bf
       0.14638366 -0.06880167 0.14307107 -0.560206
0002c0 38 c3 23 3e fb 87 fe be d0 5b a6 3e 2a b6 a5 3e
       0.15992439 -0.4971312 0.32491922 0.32365543
0002d0 fe b6 ec 3e 14 b9 01 3e df e7 04 bc 7d 37 b1 be
       0.46233362 0.12668258 -0.008111923 -0.34612647
0002e0 4c 22 0e be 37 80 c3 3e 5c 1d cd 3e 29 33 17 bd
       -0.1388027 0.38183758 0.40061462 -0.036914025
0002f0 e4 d2 1e 3f 13 85 57 3e ae 83 91 3b c0 33 78 be
       0.62040544 0.21046858 0.0044407463 -0.24238491
000300 a3 9e 44 bd ce ae d6 3e 61 ca e7 3e d8 16 cc be
       -0.04800285 0.4193024 0.4527159 -0.39861178
000310 40 89 3f bd de b8 a4 3d bb f1 c7 be 3e 71 bf 3e
       -0.04676175 0.08043073 -0.39051613 0.37391084
000320 1f f3 f3 3e 8c 7e c6 3e 19 0e 52 3e c0 a2 27 3f
       0.47646424 0.38768423 0.2051319 0.6548271
000330 f3 e0 6d bf 32 05 f9 3e c5 bb 95 be dc e1 d9 3e
       -0.9292137 0.48636776 -0.2924482 0.4255513
000340 b0 84 72 be 05 8d 75 3e 81 df 46 bd 23 d9 0a 3e
       -0.23683429 0.23979576 -0.048552994 0.13559394
000350 d6 8e f2 3d b2 f1 86 3e be 86 47 be ad 91 8f 3e
       0.1184365 0.26356274 -0.19484994 0.2804083
000360 ea d2 30 bc 0d ff ac be c3 60 54 3d e6 fd 81 be
       -0.010792473 -0.33788338 0.05185009 -0.25389022
000370 22 e0 5a bd 9c a5 a9 3d b7 b7 db be ec 5e 60 bc
       -0.053436406 0.082835406 -0.429136 -0.013694506
000380 1b f0 8f be 32 a4 df bd 0a ac aa be ad 58 1c 3e
       -0.28112873 -0.1091999 -0.3333438 0.15268202
000390 3c 22 e7 bd 24 4c f5 3a 73 7a 39 3e 72 77 11 3e
       -0.112858266 0.0018714708 0.18113117 0.14205721
0003a0 8e 63 8d 3e c4 a9 a1 3e 9f b3 aa 3c 41 92 04 be
       0.27615017 0.31574833 0.020837603 -0.12946416
0003b0 e2 60 0a 3e 7d 34 84 be da 93 b4 be 06 19 58 3e
       0.1351352 -0.25821295 -0.35269052 0.21103296
0003c0 35 3e 22 be fa 59 ad bf 16 b2 fb 3e e7 62 c3 bd
       -0.15844043 -1.3543084 0.49159306 -0.095403485
0003d0 a8 7f 8b bd 59 30 51 3f 6b bb 99 3f 74 89 94 3d
       -0.06811458 0.817144 1.201032 0.072527796
0003e0 97 ab ab 3e 97 d7 62 3f bb 17 67 3e dc 6e b7 bd
       0.3352935 0.88610214 0.22567646 -0.089566916
0003f0 c5 f0 0f 40 47 46 bc 3f b5 2b 2c 3f 67 78 9e be
       2.2490704 1.4708947 0.6725419 -0.30951235

fc1.bias f4 [15]
000000 bc 60 85 3e e4 3d 82 3e d8 d6 00 3e fc 51 c6 bd
       0.26050365 0.25437844 0.12581956 -0.09683606
000010 fc 3c 09 3d de 41 a2 bd 45 8f 97 be 31 92 56 bd
       0.033505425 -0.079227194 -0.29601493 -0.052385513
000020 e7 5a f9 3d a2 50 bd bd e7 f3 73 bc 0b 14 d0 3d
       0.12175541 -0.09243895 -0.014889694 0.10160073
000030 ac 9a 57 3e 9a 5f c8 3c 8e 1b d7 3c
       0.21055096 0.024459649 0.026258256

fc2.weight f4 [8, 15]
000000 c3 56 f3 bf 9f 39 01 3f 28 ee ad be 0f f2 96 be
       -1.9010853 0.5047855 -0.3397076 -0.2948155
000010 4c 78 03 3d 50 52 b2 3e a2 92 c1 3d 91 fd 6c bf
       0.032097146 0.34828424 0.09451796 -0.9257441
000020 10 f7 31 bf a3 7e 02 3f 14 71 44 bf fe d6 0b be
       -0.6951761 0.5097448 -0.76735044 -0.13656232
000030 27 23 58 be 7b 81 ea 3d e6 8e 94 3c f2 27 fb 3e
       -0.2110716 0.11450478 0.018134546 0.49053913
000040 b8 cd 79 be 47 29 79 3f 0d 7c fc bd 87 61 92 3c
       -0.24394882 0.9732861 -0.12328348 0.01786877
000050 31 df 15 3f 3a 72 dd 3f 0c 7c 7e 3f c2 71 da be
       0.5854369 1.7300484 0.9940803 -0.42664915
000060 21 c9 00 3d af 0c d7 bd 49 09 db be 29 80 e8 3e
       0.03144181 -0.10500466 -0.42780522 0.45410278
000070 b8 5e 01 bd c7 93 cb be 80 48 35 bf 2d da cd bd
       -0.03158447 -0.39761183 -0.7081375 -0.10051379
000080 bc 76 84 3f 60 82 f9 3e 03 3d 9a be 9e b9 c2 bc
       1.0348735 0.4873228 -0.30124673 -0.02377015
000090 a6 ae e2 3f d5 c3 22 3f 94 7e 96 3f fd 30 27 bf
       1.7709548 0.63580066 1.1757379 -0.65309125
0000a0 34 5b bc bf 57 72 d3 be 5d 58 6c 3e f5 c9 d2 3e
       -1.4715333 -0.41298172 0.23080583 0.41169706
0000b0 0a cc 30 3f 27 96 7f 3e 52 ed 03 be 6b c2 76 bf
       0.6906134 0.24959622 -0.128835 -0.9639041
0000c0 87 8d a3 bd 84 d4 01 3f 93 03 e6 bb 9b a7 40 bf
       -0.079859786 0.507149 -0.007019469 -0.75255746
0000d0 62 3f 74 be b4 96 35 3f 2f 76 ee 3e 46 38 be 3d
       -0.23852304 0.7093308 0.46574542 0.09288077
0000e0 b4 f8 f3 3e 39 7e e0 3d f8 bd 34 3e ef a7 21 3f
       0.47650683 0.10961575 0.17650592 0.6314687
0000f0 ad ba de 3e 07 b2 4d bd 2c af 74 be 0a a7 8b bb
       0.43501797 -0.05021861 -0.23894948 -0.004261856
000100 45 f0 24 be 6f cb 5e 3f 8c 04 e1 3f bb c0 8b be
       -0.1610728 0.87029165 1.7579513 -0.2729548
000110 f5 eb d7 3e df 9c 6b 3f 5c 9a 11 bf 5f 4b cd bd
       0.42172208 0.9203624 -0.5687616 -0.100241415
000120 1c 7c e8 3d 04 5f 8a 3d b5 3f d6 3d 44 be b4 be
       0.11351797 0.06756404 0.1046137 -0.3530141
000130 de 16 47 3e 98 97 23 3e 71 13 ac bd 39 8b ef 3e
       0.19442317 0.15975797 -0.08402146 0.46785906
000140 26 91 0e bf 43 2c 0a be 71 83 15 3f 76 43 e9 3d
       -0.5569023 -0.13493447 0.5840369 0.1138982
000150 7d e8 8f be ea be 38 3e e3 5f 70 3e 64 a5 c4 3e
       -0.28107062 0.18041578 0.23474078 0.38407433
000160 d1 fe 17 3e 32 f9 c4 be 04 61 89 be 08 af 14 bf
       0.14843298 -0.3847137 -0.2683183 -0.58079576
000170 bb 82 5e bf 38 19 04 3e c0 fe 93 3c 6b d7 84 3d
       -0.8691823 0.12900245 0.01806581 0.064864
000180 6d 8a 90 3f f0 b0 e3 be 1c ef 97 3f 82 0d 18 be
       1.1292244 -0.4447093 1.1869845 -0.14848903
000190 aa 2e ba bd fb 23 68 3e 24 4b bb bb 8d cd b3 be
       -0.09090932 0.22669975 -0.0057157446 -0.3511776
0001a0 3c 9d 8e 3f 74 de f9 be 9c e1 cd 3e 90 96 a4 3e
       1.1141734 -0.4880253 0.4021119 0.3214612
0001b0 bc eb d5 3e 50 bc 96 3d f6 9e 0e bf 49 69 0f c0
       0.41781414 0.073601365 -0.55711305 -2.240801
0001c0 bc ce eb 3e 51 5a a3 3f fa 5d 70 bf 5e a2 be 3c
       0.46056163 1.2761937 -0.93893397 0.023270782
0001d0 4a 5c 6a be 47 bb 44 3e ef 7a bd 3e 21 7d 9e 3f
       -0.22886768 0.19212066 0.37007853 1.2381936

fc2.bias f4 [8]
000000 f0 23 55 3e 17 fc d6 3d 8a 81 0b 3e 44 39 fc 3e
       0.2081449 0.10497301 0.13623634 0.4926244
000010 a9 ff db 3e 99 71 1c 3e be 6f 23 3e 1a 0b fe 3d
       0.4296849 0.15277709 0.15960595 0.12404461

output.weight f4 [4, 8]
000000 8c 71 36 bf 96 c2 2c 3f 54 b4 39 3e c9 ce 81 be
       -0.7126701 0.67484415 0.18135196 -0.25353077
000010 60 4d cf 3d 13 f7 f3 be b9 24 8d 3e 3a 5e 2e be
       0.1012218 -0.4764944 0.2756708 -0.17028132
000020 7c 03 af 3e 26 ef 47 3e a1 2b 42 c0 e8 a3 28 be
       0.34182346 0.19524822 -3.033913 -0.16468775
000030 38 ee 89 3e ea e0 9c be 8e 1f 98 be 41 69 bf bf
       0.2693956 -0.30640346 -0.29711574 -1.4953996
000040 c0 25 5a 3f 6a f2 06 3e 77 f2 89 3e 74 a0 92 bf
       0.8521385 0.13178411 0.26942798 -1.1455216
000050 be 24 a0 bf bb 54 cb 3e 72 e1 5f c0 23 48 47 3f
       -1.2511213 0.39713082 -3.498135 0.77844447
000060 08 85 9a 3d 1e ea 8b bf 58 ba 07 be 17 0d 07 3f
       0.07544905 -1.0930822 -0.13254678 0.5275435
000070 de d7 2b be a9 08 fc be ea c6 f1 3e 48 4d 11 3f
       -0.16781566 -0.49225357 0.47222072 0.56758547

output.bias f4 [4]
000000 b7 72 ad 3e be a3 ab 3d 66 a5 c3 3d 98 80 e3 be
       0.33876583 0.08380841 0.095530316 -0.44434047

fc0.weight f4 [20, 37]
000000 7d 2b 21 3e be 02 63 3e ef 23 01 bd 4a 7d 24 be
       0.15739246 0.22169015 -0.03152841 -0.16063419
000010 d0 f4 09 3f a3 ce 87 3c cf 0b a4 3e 04 9f 21 be
       0.5388918 0.016578024 0.3204026 -0.15783316
000020 5a 34 99 bc 09 8c 02 be b0 18 0e be c7 1e ed bd
       -0.018701721 -0.12748732 -0.13876605 -0.11578136
000030 58 76 60 3e 87 7c f5 bd 8c da 01 be 8b 69 74 3e
       0.21920145 -0.11986642 -0.12681025 0.23868386
000040 0c 1b 8f bf 5d ac 52 bf 45 c0 04 bf b8 c2 6f 3e
       -1.1180129 -0.82294255 -0.5185588 0.23414123
000050 be 0c 6f be 8c b3 8f bd 3e 3e b3 bc 81 93 00 3c
       -0.23344705 -0.07016668 -0.021880265 0.007847668
000060 65 17 c3 3d d4 a8 76 3e f1 ce 2f be 91 b0 aa be
       0.095259465 0.2408784 -0.17168786 -0.33337834
000070 42 0e ba bd 80 59 0e 3d b2 79 e9 be 46 94 eb 3e
       -0.09084751 0.034753323 -0.4560066 0.4601156
000080 9c fa 77 bd b2 29 7c 3d 12 f7 e2 bb f5 75 74 be
       -0.060541734 0.0615632 -0.0069264257 -0.23873122
000090 28 14 98 bd e6 cd c0 3d 26 12 48 3c 64 83 74 3d
       -0.074257195 0.09414272 0.012211358 0.059695616
0000a0 f0 9b b2 3d cb 77 d4 3d bd 9c 17 3f 41 c8 3b be
       0.08721149 0.10374411 0.5922354 -0.1833811
0000b0 cf 71 ae bd 59 e1 58 bf 57 7c 4a c0 39 ae c0 3d
       -0.08517801 -0.84718853 -3.163839 0.0940823
0000c0 60 6d b3 3d 4b 59 ba 3d ee 08 6a 3d 4a 66 04 3e
       0.08761096 0.090990625 0.057137422 0.12929645
0000d0 6b fc 76 bd f7 89 e5 3c a5 d5 9e 3d 92 1b a5 bb
       -0.06029932 0.028019888 0.07755593 -0.005038687
0000e0 51 9a c0 3d 15 34 db 3d a4 af bf 3d 06 6d 15 3e
       0.094044335 0.10703293 0.09359673 0.1459237
0000f0 29 ff b5 3d 82 47 61 3d b1 a1 30 3e d6 4f c4 3e
       0.088865586 0.054999836 0.1724918 0.3834216
000100 c4 0a 63 3e e7 59 41 3d cc 6b c2 be ae d6 44 3d
       0.22172076 0.04720488 -0.37972867 0.048056297
000110 6f 4d 5f bd 9c fb 2e 3d a2 09 46 3d 8d 5c b7 3d
       -0.054517206 0.042720422 0.04834903 0.089531995
000120 8e 73 43 bc 1a 05 91 3c 3e c8 39 3e 8f 0a 56 3d
       -0.011929406 0.017702628 0.18142793 0.052256163
000130 25 cf 1e 3e ce 4b 83 3e 88 c4 46 3e 5b ca 0c 3e
       0.15508707 0.25643772 0.19410908 0.13749067
000140 6f 66 6e be 3f 0d 02 bd e0 6c ed be ad 93 25 bf
       -0.23281263 -0.031750914 -0.46372128 -0.6467846
000150 c2 74 6e bd 6a b1 47 be 4b 88 f2 3c 39 c6 a4 3e
       -0.058216818 -0.19501272 0.029606005 0.32182482
000160 15 f9 01 3f fc ad 0c 3e c4 05 14 3e 66 f6 48 3e
       0.50770694 0.13738245 0.14455324 0.19625244
000170 13 94 38 3e ba a9 ff 3c 82 6f ec bd eb 73 b3 3d
       0.18025236 0.031208862 -0.11544706 0.08762344
000180 10 3b 19 3e 62 f3 d7 3e ca 61 12 3f 20 8a c5 bb
       0.14963937 0.42177874 0.57180464 -0.0060284287
000190 74 58 7f 3e 2b 44 4a 3e b2 77 9a bd 98 2c b5 be
       0.24936086 0.19752567 -0.07542361 -0.35385585
0001a0 a6 43 b4 bd 16 1e 9d bc d9 7a 50 3e 20 da c9 3e
       -0.088019654 -0.019179385 0.20359363 0.3942423
0001b0 0f 1c 5f 3f 32 37 96 be e5 89 b1 3d 15 11 d5 3c
       0.8715219 -0.29338986 0.086688794 0.026009122
0001c0 b7 b2 2d bd c3 80 a3 bd 2c 49 a2 3d 78 75 fd 3d
       -0.042406764 -0.07983544 0.07924113 0.12375921
0001d0 33 89 4d 3f a9 0d aa bf 45 57 2c bf ae 11 85 bf
       0.80287474 -1.3285419 -0.6732066 -1.039602
0001e0 44 fc 3c c0 d7 fe 0a 3e 4a 1b 1d 3e 28 a6 f7 3c
       -2.952897 0.13573776 0.15342441 0.030230597
0001f0 fe 1c f4 3c 1a 3c c0 bd a2 05 4e 3d 57 8b 23 3d
       0.02979898 -0.093864635 0.05029834 0.039927807
000200 83 50 c0 bd 69 e8 91 3d c3 5b 13 3e c4 72 68 3c
       -0.093903564 0.07124407 0.14390473 0.0141875185
000210 b7 bf 99 3c cc 9a be 3a dc 0b 84 3b 2e 94 63 bd
       0.018768175 0.0014541983 0.004029734 -0.055561237
000220 6f 72 20 3e c3 a0 a6 3b 60 79 94 bc 24 58 47 bd
       0.15668653 0.0050850823 -0.018124282 -0.04866804
000230 0d b6 e3 3d 7c a5 1c be 66 19 12 bd d2 06 32 be
       0.11118708 -0.15297502 -0.035668753 -0.17385414
000240 99 c5 76 be 04 a1 9b be 25 92 fd bc 5a fe f2 3c
       -0.24098815 -0.30396283 -0.030953476 0.0296623
000250 b3 90 cd 3d 18 a1 2b 3d 12 4f f0 3c 2f cc 20 3e
       0.10037365 0.041901678 0.029334579 0.1570289
000260 19 92 b8 3d 06 7e 0e bf 0b 33 f1 3e c8 b9 3e 3f
       0.09012241 -0.55661047 0.47109255 0.7450223
000270 48 d3 94 3f 74 3c df 3f a4 9d 0d 3e cf fe 09 3e
       1.1626978 1.7440324 0.13829666 0.13476108
000280 bc b2 7f bc de 73 94 3d 86 68 10 be 25 1c 27 bc
       -0.015606578 0.072486624 -0.14102373 -0.010199581
000290 4d 9a ef 3d 71 83 93 3d 6b b8 44 3c 71 38 a3 bd
       0.116993524 0.07202805 0.012006859 -0.0796975
0002a0 7c 2e 6b 3e b2 f4 e1 3d 92 74 10 3c aa 79 8d 3c
       0.22966951 0.11033 0.008816855 0.017269928
0002b0 e9 10 45 be c3 d2 e8 3b 3b 6d 85 3d 7e 36 44 3e
       -0.19244732 0.007105203 0.06514975 0.19161412
0002c0 af ff 2e ba d2 bb 9e be 65 b2 3d 3e ac 74 7a bd
       -0.0006675673 -0.3100267 0.18525083 -0.061146423
0002d0 3b a9 98 3d d8 80 29 bd 73 52 67 be 6b 85 42 bd
       0.07454153 -0.04138264 -0.22590046 -0.04749052
0002e0 cb 8b 84 bd 0a 57 47 bd 06 70 cb 3c 26 b7 58 be
       -0.06471976 -0.04866699 0.02483369 -0.21163616
0002f0 d3 b6 12 be a0 59 29 3e 54 4b 0d 3d 81 54 6e 3e
       -0.14327554 0.16538095 0.034495667 0.23274423
000300 19 5d 58 be 2d 48 8c 3e ce 43 b2 3e 3c 45 bf 3e
       -0.21129264 0.27398816 0.34817356 0.3735751
000310 e1 4f 55 bf 6a e2 3e be 46 ca 16 bf 3e 2e 27 bf
       -0.8332501 -0.18641058 -0.58902395 -0.65304935
000320 be 40 3f bd 6c 65 65 be 1d 46 b7 be cb 37 99 3d
       -0.046692602 -0.2240197 -0.3579568 0.07481345
000330 ee 2f 9d be 35 27 73 3d 68 49 61 3e 3a d7 b5 be
       -0.3070063 0.059363563 0.22000659 -0.35515767
000340 88 bf 0b bf d5 ad 5e bf f1 18 b9 be eb 9f ba bc
       -0.5458913 -0.86983997 -0.3615184 -0.022781333
000350 9e ba c1 bd 82 26 df be d3 72 a4 be 5c 03 50 bf
       -0.094594225 -0.43584067 -0.32118854 -0.81255126
000360 5b ee 93 3e 96 d6 a8 bd 1b 77 e9 bd ca e9 03 3f
       0.28892788 -0.08244054 -0.11399671 0.5152861
000370 68 7c 06 bf cd ce 30 bc 57 b7 2c bd 19 1e dc 3c
       -0.5253358 -0.010791493 -0.042167034 0.02686982
000380 75 c4 e9 bc fd 23 25 3d a4 70 03 3d 08 5f 99 3d
       -0.02853606 0.040317524 0.032089844 0.07488829
000390 cb 2a 55 3e 26 d8 56 3d 52 48 e7 3d 1b f7 bc bd
       0.20817105 0.05245223 0.11293091 -0.09226819
0003a0 55 34 a7 3c 46 a5 4c 3d d4 28 a0 3a 90 a5 b5 3d
       0.020410696 0.049962305 0.0012219199 0.08869469
0003b0 e2 9d 63 3c 34 97 16 3c 44 de f0 3c d8 65 73 3d
       0.013892623 0.009191323 0.02940286 0.059423298
0003c0 ea 44 1e 3e f7 85 25 3e a0 d5 18 bc bd 5e 01 3d
       0.15455976 0.16164385 -0.009328276 0.03158449
0003d0 2d e4 86 3c ce 3d ac 3d 5d df d4 3c b1 50 32 3f
       0.016466225 0.08410226 0.025985414 0.69654375
0003e0 a4 6a 6a bf 87 85 21 bf 3c 7c 2a bf c1 70 4f c0
       -0.9156897 -0.6309437 -0.66595817 -3.241257
0003f0 41 e0 cc 3c bc 4b f7 3c 0a 14 16 bc c6 17 13 3e
       0.025009276 0.03018748 -0.009160051 0.14364538

fc0.bias f4 [20]
000000 ab aa 35 be 3f d6 da bd bb a4 8b bc ae 9a d0 3e
       -0.17740886 -0.106853954 -0.017046323 0.4074301
000010 53 41 51 3e f6 f0 4b bd a2 c3 08 bc a3 8b 93 3d
       0.20435075 -0.049790345 -0.008347424 0.07204368
000020 ad 97 7d 3e c5 fc ca bd b5 1d 72 3e d9 83 6c be
       0.24764891 -0.09911493 0.23644145 -0.23097171
000030 6a ed 46 bb 86 9b 58 3e fe e1 88 3e 5d 6b 37 3e
       -0.0030353912 0.21153077 0.26734918 0.1791205
000040 fe 4b ce bd 59 da 9f 3d 8f c0 25 3e 7b 8c 13 3e
       -0.10073088 0.078053184 0.16186737 0.14409058

fc1.weight f4 [15, 20]
000000 c9 64 1b 3e 2b f1 23 3f e4 a6 77 3d da 9a 2b 3f
       0.15175165 0.6403987 0.060461894 0.6703316
000010 d2 d0 a5 be b2 25 b1 bd 04 25 d5 be f2 a1 64 3e
       -0.3238588 -0.08649768 -0.41629803 0.22327402
000020 91 55 c3 be d8 90 3d 3d 2a 98 51 bc af 41 24 3e
       -0.3815122 0.046280712 -0.012792626 0.16040681
000030 c0 77 25 bf 29 bb 4c bd 5d a1 15 be b7 55 97 3e
       -0.6463585 -0.049983177 -0.14612336 0.29557583
000040 a7 85 e6 be 63 78 15 bf cd 52 81 bc 26 b7 1b be
       -0.45023844 -0.5838682 -0.015786553 -0.15206584
000050 9a 96 64 bd f9 cf b2 3e 7f b8 c8 3d 95 54 8b 3e
       -0.055807687 0.34924296 0.09800815 0.27212968
000060 c8 36 cd bd b3 de 5b bc dd d6 0b bf ac e6 81 bd
       -0.10020214 -0.013419795 -0.5462473 -0.06342825
000070 b5 08 19 bf a3 dd 49 3e 43 ad a5 3d fc 2b 83 be
       -0.5977891 0.19713454 0.08089688 -0.25619495
000080 1e d9 15 3f 54 b4 63 3f 48 d8 f1 bb 9d 8b 93 3d
       0.5853442 0.88947034 -0.007380519 0.072043635
000090 52 96 bb 3b 5e e6 82 3d fa d9 bf 3d 9d de 2c 3d
       0.0057247067 0.06391595 0.093677476 0.042204488
0000a0 85 fb d1 be 0f 1e 26 bf 3c a4 8d bd 70 cd 58 be
       -0.41012207 -0.64889616 -0.06916091 -0.21172118
0000b0 07 2b 48 3e 93 0b 90 3e ba 89 5f bf 7f 50 e4 3d
       0.19547664 0.2813383 -0.8731953 0.11148166
0000c0 82 fe a0 bd 97 e6 ed 3e ae 60 cb 3c 7f 7d a2 bd
       -0.078610435 0.4646499 0.024826374 -0.07934093
0000d0 47 d7 a6 3f 32 eb b2 3f 43 6e 48 3f 9f 4c 20 be
       1.3034447 1.3978026 0.78293246 -0.15654229
0000e0 7f a3 4a be 42 80 4c be 05 d7 38 3e a3 d6 40 3f
       -0.19788931 -0.19970801 0.18050773 0.7532751
0000f0 c4 58 aa 3e eb 58 07 3e 43 10 1d be 36 44 79 be
       0.33270848 0.13217513 -0.15338235 -0.24342427
000100 9e 8b d1 3b 27 ef 06 be 6a e4 94 3c f6 3b 94 be
       0.0063948175 -0.13177167 0.018175323 -0.28951997
000110 3a 46 88 be 85 e2 39 be c6 a8 0e be a7 7c 1e 3c
       -0.2661608 -0.18152817 -0.1393157 0.009673274
000120 37 bf 11 3e 05 bc 0d 3b 51 10 9f 3d 78 8f f3 bd
       0.14233099 0.002162696 0.07766784 -0.11892599
000130 42 51 8f 3e bf f8 d0 be d4 d3 30 3e 58 93 7c 3d
       0.27991682 -0.40814778 0.17268306 0.061663955
000140 8c 3f 5a be 9b 28 fa bd 77 5d b0 be 0b 62 c8 bd
       -0.21313304 -0.12214776 -0.34446308 -0.09784325
000150 26 96 91 bd 89 15 d4 3b bb 3a 66 3e 60 83 8c be
       -0.07108717 0.0064722938 0.22483341 -0.2744398
000160 64 b8 d0 bd 75 b7 57 3e 5e 12 a7 3d 92 97 7c 3e
       -0.1019142 0.21066077 0.081578 0.24667194
000170 cc a7 89 3d f8 ca 8d be d0 9e 14 bf 71 4f b0 be
       0.06721458 -0.27693915 -0.5805483 -0.3443561
000180 5a e7 53 3e 50 90 28 bf f2 f6 53 3e 5d da a3 3d
       0.20693722 -0.65845203 0.20699671 0.08000634
000190 a4 c0 6c 3e 51 82 56 3f c9 c2 81 3d 35 8e 02 3f
       0.23120362 0.837926 0.063359804 0.5099824
0001a0 0a f5 bd be 92 33 4a bd c6 18 41 bc 67 88 02 3e
       -0.37101012 -0.049365588 -0.011785692 0.12747346
0001b0 6a 86 d1 bd 34 58 e8 3d 82 46 bb 3c 73 45 b9 3d
       -0.102307156 0.113449484 0.02286077 0.090464495
0001c0 e9 cc 10 bf 6d 3d 2a be e5 cb a5 3d 1d 9c 33 3e
       -0.5656267 -0.16624995 0.080955304 0.17540021
0001d0 76 2d 9f 3e 2b 93 73 be dd d9 04 3d 55 2f 6b 3d
       0.3108937 -0.23786609 0.032434333 0.057418186
0001e0 95 32 80 3c f9 f3 81 3f ec 3c c9 bd 6b 61 e3 3e
       0.01564912 1.015258 -0.09826073 0.44410262
0001f0 93 54 f9 be 51 8f 0b be 54 49 df 3d 33 c3 0a 3e
       -0.48697338 -0.1362889 0.10902658 0.13551025
000200 0f c7 0a bc 7b 7d 81 be c6 13 d5 bc 3c ad c5 3d
       -0.008470311 -0.25291047 -0.026010405 0.096521825
000210 6e 26 58 3e 02 33 ab bd 6a 50 d2 bc 01 dd 51 3e
       0.2110841 -0.08359338 -0.02567311 0.20494463
000220 ef b9 ba bd e9 2a ef be 14 54 ad bd 36 d7 0f bd
       -0.09117495 -0.46712425 -0.08463302 -0.03511735
000230 7b 67 b7 be 42 ed ba be 1e 7c e5 be 37 5f 18 3e
       -0.35821137 -0.36509138 -0.44821256 0.14880072
000240 33 45 2b be 60 69 8f 3e d6 e5 59 be 97 a6 10 bc
       -0.16725616 0.28010082 -0.21279082 -0.008828781
000250 13 30 9a bd 53 df 2e 3f b1 91 30 3d a2 59 2e be
       -0.07528701 0.68309516 0.043107692 -0.1702638
000260 f2 22 01 3f 04 12 75 3d fe 4b e8 3e 1b b1 16 be
       0.5044395 0.059831634 0.45370477 -0.14715998
000270 db 06 0d bf e6 de 37 be 8a 93 ef 3e 7a e5 9e 3f
       -0.55088586 -0.17956123 0.4679225 1.2413781
000280 75 d1 ac bf fd 3f 28 bf 5d 79 44 3d f0 2d 3c be
       -1.3501421 -0.6572264 0.047967304 -0.18376899
000290 16 85 10 3e a9 09 36 3e 75 87 2b 3f fd 76 85 be
       0.14113268 0.17777123 0.67003566 -0.26067343
0002a0 54 49 6d 3f 78 51 86 3e da b8 0c 3e ca 64 5c 3e
       0.92690015 0.2623403 0.1374239 0.21522823
0002b0 99 e5 15 3e e4 e7 8c bd 39 81 12 3e a9 69 0f bf
       0.14638366 -0.06880167 0.14307107 -0.560206
0002c0 38 c3 23 3e fb 87 fe be d0 5b a6 3e 2a b6 a5 3e
       0.15992439 -0.4971312 0.32491922 0.32365543
0002d0 fe b6 ec 3e 14 b9 01 3e df e7 04 bc 7d 37 b1 be
       0.46233362 0.12668258 -0.008111923 -0.34612647
0002e0 4c 22 0e be 37 80 c3 3e 5c 1d cd 3e 29 33 17 bd
       -0.1388027 0.38183758 0.40061462 -0.036914025
0002f0 e4 d2 1e 3f 13 85 57 3e ae 83 91 3b c0 33 78 be
       0.62040544 0.21046858 0.0044407463 -0.24238491
000300 a3 9e 44 bd ce ae d6 3e 61 ca e7 3e d8 16 cc be
       -0.04800285 0.4193024 0.4527159 -0.39861178
000310 40 89 3f bd de b8 a4 3d bb f1 c7 be 3e 71 bf 3e
       -0.04676175 0.08043073 -0.39051613 0.37391084
000320 1f f3 f3 3e 8c 7e c6 3e 19 0e 52 3e c0 a2 27 3f
       0.47646424 0.38768423 0.2051319 0.6548271
000330 f3 e0 6d bf 32 05 f9 3e c5 bb 95 be dc e1 d9 3e
       -0.9292137 0.48636776 -0.2924482 0.4255513
000340 b0 84 72 be 05 8d 75 3e 81 df 46 bd 23 d9 0a 3e
       -0.23683429 0.23979576 -0.048552994 0.13559394
000350 d6 8e f2 3d b2 f1 86 3e be 86 47 be ad 91 8f 3e
       0.1184365 0.26356274 -0.19484994 0.2804083
000360 ea d2 30 bc 0d ff ac be c3 60 54 3d e6 fd 81 be
       -0.010792473 -0.33788338 0.05185009 -0.25389022
000370 22 e0 5a bd 9c a5 a9 3d b7 b7 db be ec 5e 60 bc
       -0.053436406 0.082835406 -0.429136 -0.013694506
000380 1b f0 8f be 32 a4 df bd 0a ac aa be ad 58 1c 3e
       -0.28112873 -0.1091999 -0.3333438 0.15268202
000390 3c 22 e7 bd 24 4c f5 3a 73 7a 39 3e 72 77 11 3e
       -0.112858266 0.0018714708 0.18113117 0.14205721
0003a0 8e 63 8d 3e c4 a9 a1 3e 9f b3 aa 3c 41 92 04 be
       0.27615017 0.31574833 0.020837603 -0.12946416
0003b0 e2 60 0a 3e 7d 34 84 be da 93 b4 be 06 19 58 3e
       0.1351352 -0.25821295 -0.35269052 0.21103296
0003c0 35 3e 22 be fa 59 ad bf 16 b2 fb 3e e7 62 c3 bd
       -0.15844043 -1.3543084 0.49159306 -0.095403485
0003d0 a8 7f 8b bd 59 30 51 3f 6b bb 99 3f 74 89 94 3d
       -0.06811458 0.817144 1.201032 0.072527796
0003e0 97 ab ab 3e 97 d7 62 3f bb 17 67 3e dc 6e b7 bd
       0.3352935 0.88610214 0.22567646 -0.089566916
0003f0 c5 f0 0f 40 47 46 bc 3f b5 2b 2c 3f 67 78 9e be
       2.2490704 1.4708947 0.6725419 -0.30951235

fc1.bias f4 [15]
000000 bc 60 85 3e e4 3d 82 3e d8 d6 00 3e fc 51 c6 bd
       0.26050365 0.25437844 0.12581956 -0.09683606
000010 fc 3c 09 3d de 41 a2 bd 45 8f 97 be 31 92 56 bd
       0.033505425 -0.079227194 -0.29601493 -0.052385513
000020 e7 5a f9 3d a2 50 bd bd e7 f3 73 bc 0b 14 d0 3d
       0.12175541 -0.09243895 -0.014889694 0.10160073
000030 ac 9a 57 3e 9a 5f c8 3c 8e 1b d7 3c
       0.21055096 0.024459649 0.026258256

fc2.weight f4 [8, 15]
000000 c3 56 f3 bf 9f 39 01 3f 28 ee ad be 0f f2 96 be
       -1.9010853 0.5047855 -0.3397076 -0.2948155
000010 4c 78 03 3d 50 52 b2 3e a2 92 c1 3d 91 fd 6c bf
       0.032097146 0.34828424 0.09451796 -0.9257441
000020 10 f7 31 bf a3 7e 02 3f 14 71 44 bf fe d6 0b be
       -0.6951761 0.5097448 -0.76735044 -0.13656232
000030 27 23 58 be 7b 81 ea 3d e6 8e 94 3c f2 27 fb 3e
       -0.2110716 0.11450478 0.018134546 0.49053913
000040 b8 cd 79 be 47 29 79 3f 0d 7c fc bd 87 61 92 3c
       -0.24394882 0.9732861 -0.12328348 0.01786877
000050 31 df 15 3f 3a 72 dd 3f 0c 7c 7e 3f c2 71 da be
       0.5854369 1.7300484 0.9940803 -0.42664915
000060 21 c9 00 3d af 0c d7 bd 49 09 db be 29 80 e8 3e
       0.03144181 -0.10500466 -0.42780522 0.45410278
000070 b8 5e 01 bd c7 93 cb be 80 48 35 bf 2d da cd bd
       -0.03158447 -0.39761183 -0.7081375 -0.10051379
000080 bc 76 84 3f 60 82 f9 3e 03 3d 9a be 9e b9 c2 bc
       1.0348735 0.4873228 -0.30124673 -0.02377015
000090 a6 ae e2 3f d5 c3 22 3f 94 7e 96 3f fd 30 27 bf
       1.7709548 0.63580066 1.1757379 -0.65309125
0000a0 34 5b bc bf 57 72 d3 be 5d 58 6c 3e f5 c9 d2 3e
       -1.4715333 -0.41298172 0.23080583 0.41169706
0000b0 0a cc 30 3f 27 96 7f 3e 52 ed 03 be 6b c2 76 bf
       0.6906134 0.24959622 -0.128835 -0.9639041
0000c0 87 8d a3 bd 84 d4 01 3f 93 03 e6 bb 9b a7 40 bf
       -0.079859786 0.507149 -0.007019469 -0.75255746
0000d0 62 3f 74 be b4 96 35 3f 2f 76 ee 3e 46 38 be 3d
       -0.23852304 0.7093308 0.46574542 0.09288077
0000e0 b4 f8 f3 3e 39 7e e0 3d f8 bd 34 3e ef a7 21 3f
       0.47650683 0.10961575 0.17650592 0.6314687
0000f0 ad ba de 3e 07 b2 4d bd 2c af 74 be 0a a7 8b bb
       0.43501797 -0.05021861 -0.23894948 -0.004261856
000100 45 f0 24 be 6f cb 5e 3f 8c 04 e1 3f bb c0 8b be
       -0.1610728 0.87029165 1.7579513 -0.2729548
000110 f5 eb d7 3e df 9c 6b 3f 5c 9a 11 bf 5f 4b cd bd
       0.42172208 0.9203624 -0.5687616 -0.100241415
000120 1c 7c e8 3d 04 5f 8a 3d b5 3f d6 3d 44 be b4 be
       0.11351797 0.06756404 0.1046137 -0.3530141
000130 de 16 47 3e 98 97 23 3e 71 13 ac bd 39 8b ef 3e
       0.19442317 0.15975797 -0.08402146 0.46785906
000140 26 91 0e bf 43 2c 0a be 71 83 15 3f 76 43 e9 3d
       -0.5569023 -0.13493447 0.5840369 0.1138982
000150 7d e8 8f be ea be 38 3e e3 5f 70 3e 64 a5 c4 3e
       -0.28107062 0.18041578 0.23474078 0.38407433
000160 d1 fe 17 3e 32 f9 c4 be 04 61 89 be 08 af 14 bf
       0.14843298 -0.3847137 -0.2683183 -0.58079576
000170 bb 82 5e bf 38 19 04 3e c0 fe 93 3c 6b d7 84 3d
       -0.8691823 0.12900245 0.01806581 0.064864
000180 6d 8a 90 3f f0 b0 e3 be 1c ef 97 3f 82 0d 18 be
       1.1292244 -0.4447093 1.1869845 -0.14848903
000190 aa 2e ba bd fb 23 68 3e 24 4b bb bb 8d cd b3 be
       -0.09090932 0.22669975 -0.0057157446 -0.3511776
0001a0 3c 9d 8e 3f 74 de f9 be 9c e1 cd 3e 90 96 a4 3e
       1.1141734 -0.4880253 0.4021119 0.3214612
0001b0 bc eb d5 3e 50 bc 96 3d f6 9e 0e bf 49 69 0f c0
       0.41781414 0.073601365 -0.55711305 -2.240801
0001c0 bc ce eb 3e 51 5a a3 3f fa 5d 70 bf 5e a2 be 3c
       0.46056163 1.2761937 -0.93893397 0.023270782
0001d0 4a 5c 6a be 47 bb 44 3e ef 7a bd 3e 21 7d 9e 3f
       -0.22886768 0.19212066 0.37007853 1.2381936

fc2.bias f4 [8]
000000 f0 23 55 3e 17 fc d6 3d 8a 81 0b 3e 44 39 fc 3e
       0.2081449 0.10497301 0.13623634 0.4926244
000010 a9 ff db 3e 99 71 1c 3e be 6f 23 3e 1a 0b fe 3d
       0.4296849 0.15277709 0.15960595 0.12404461

output.weight f4 [4, 8]
000000 8c 71 36 bf 96 c2 2c 3f 54 b4 39 3e c9 ce 81 be
       -0.7126701 0.67484415 0.18135196 -0.25353077
000010 60 4d cf 3d 13 f7 f3 be b9 24 8d 3e 3a 5e 2e be
       0.1012218 -0.4764944 0.2756708 -0.17028132
000020 7c 03 af 3e 26 ef 47 3e a1 2b 42 c0 e8 a3 28 be
       0.34182346 0.19524822 -3.033913 -0.16468775
000030 38 ee 89 3e ea e0 9c be 8e 1f 98 be 41 69 bf bf
       0.2693956 -0.30640346 -0.29711574 -1.4953996
000040 c0 25 5a 3f 6a f2 06 3e 77 f2 89 3e 74 a0 92 bf
       0.8521385 0.13178411 0.26942798 -1.1455216
000050 be 24 a0 bf bb 54 cb 3e 72 e1 5f c0 23 48 47 3f
       -1.2511213 0.39713082 -3.498135 0.77844447
000060 08 85 9a 3d 1e ea 8b bf 58 ba 07 be 17 0d 07 3f
       0.07544905 -1.0930822 -0.13254678 0.5275435
000070 de d7 2b be a9 08 fc be ea c6 f1 3e 48 4d 11 3f
       -0.16781566 -0.49225357 0.47222072 0.56758547

output.bias f4 [4]
000000 b7 72 ad 3e be a3 ab 3d 66 a5 c3 3d 98 80 e3 be
       0.33876583 0.08380841 0.095530316 -0.44434047

exp_avg f4 [20, 37]
000000 18 03 e6 b5 16 69 7f b9 eb 95 aa 35 e5 bf 17 b5
       -1.7137236e-06 -0.00024357843 1.2709619e-06 -5.6531127e-07
000010 6a 1f 57 b9 1c fa 86 b9 5e 67 7f 37 15 b4 d3 b6
       -0.000205157 -0.00025744818 1.52232515e-05 -6.3092543e-06
000020 81 76 84 36 80 f5 9a b8 f3 eb 3d b9 c0 9f 93 b7
       3.947702e-06 -7.38902e-05 -0.00018112343 -1.7598155e-05
000030 43 ff 84 b8 ea 3e 93 37 6d f7 75 b8 26 b8 79 b9
       -6.341797e-05 1.7553062e-05 -5.8642985e-05 -0.00023815091
000040 01 fe c9 b6 b7 49 e3 b4 51 a9 02 32 76 31 85 b8
       -6.0198367e-06 -4.233568e-07 7.605494e-09 -6.351147e-05
000050 7c 09 43 b9 f5 96 81 b7 34 a0 22 b8 eb 68 92 b6
       -0.00018600182 -1.5448293e-05 -3.877301e-05 -4.363353e-06
000060 a2 22 1b b8 be 7d 8f b9 7a 70 ed 37 7e 11 da b5
       -3.6987134e-05 -0.0002736877 2.8304978e-05 -1.6247357e-06
000070 e2 77 22 36 42 5f 62 b8 4e 07 85 36 18 12 81 b9
       2.4209662e-06 -5.3971315e-05 3.9645593e-06 -0.00024618278
000080 bc a9 d8 36 4c 10 14 b7 1b 0f 62 b9 e4 55 7a b8
       6.4570613e-06 -8.825282e-06 -0.00021558667 -5.9684637e-05
000090 58 32 0d bb 8a 07 2f b9 e4 7b 08 ba 49 ff d4 39
       -0.00215449 -0.00016692109 -0.00052064494 0.00040625993
0000a0 69 d1 b4 37 67 17 8f b9 0b 38 8a b9 ad ea 90 37
       2.1555186e-05 -0.00027292522 -0.00026363166 1.7275417e-05
0000b0 97 61 3f b7 e4 5e 05 b6 61 ff 9a b8 e2 8d a4 b9
       -1.1407209e-05 -1.9873778e-06 -7.39086e-05 -0.00031386229
0000c0 4c a7 94 39 45 e6 9d b8 08 9e 21 b9 e9 51 d4 38
       0.00028353406 -7.5292344e-05 -0.00015413028 0.00010124205
0000d0 2c 98 a3 b9 63 09 32 b9 18 f4 43 38 5d de 37 39
       -0.0003120316 -0.000169789 4.6718953e-05 0.00017535077
0000e0 c4 96 40 b9 15 94 da b9 9c 04 94 38 57 45 31 39
       -0.00018366711 -0.0004169053 7.0580485e-05 0.00016905867
0000f0 a6 fb ac b8 5a a9 63 b7 17 35 36 38 2e 07 df b8
       -8.248472e-05 -1.3569685e-05 4.3441625e-05 -0.00010634806
000100 f9 cc ca b8 10 03 d2 b8 c3 9c 44 b9 e5 05 fe b8
       -9.67029e-05 -0.00010014151 -0.00018750415 -0.00012112762
000110 b7 b6 85 b9 c2 55 02 39 aa 3b 04 b7 36 74 b1 b9
       -0.0002550387 0.00012429713 -7.881705e-06 -0.00033846655
000120 96 7d 1b b9 00 c0 1e bb 2c 14 ad 38 bf 68 f6 38
       -0.00014828736 -0.0024223328 8.25304e-05 0.000117497046
000130 52 f1 4b 39 ec 55 60 b8 0d 6c 84 38 a4 e2 79 38
       0.00019449487 -5.3485783e-05 6.3143765e-05 5.95773e-05
000140 6d 40 94 39 f3 a0 2f 36 4d b7 83 b6 46 92 a5 38
       0.0002827676 2.6170717e-06 -3.9254433e-06 7.895059e-05
000150 92 dc 2e 37 3b d1 f8 38 7f 10 29 39 94 cd 54 38
       1.0422564e-05 0.00011864534 0.00016123241 5.07362e-05
000160 98 d4 e1 38 4b f0 dd b6 62 e5 99 39 74 30 06 39
       0.00010768435 -6.614287e-06 0.00029353338 0.00012797286
000170 d1 e2 9a b8 58 06 35 39 38 29 d6 b8 a1 6b 06 39
       -7.38554e-05 0.00017263868 -0.00010211993 0.00012819331
000180 0b bd ac 39 c0 6c 73 b7 7b 2b 79 39 a4 ff f7 b8
       0.00032947244 -1.4509249e-05 0.00023762688 -0.000118254946
000190 7f 79 b7 39 ad b7 db 37 4e 60 ae 38 36 7d a4 38
       0.00034995002 2.6192365e-05 8.314905e-05 7.843452e-05
0001a0 f6 3d 44 39 89 24 a8 38 e5 10 71 38 b1 2e 88 37
       0.00018715099 8.0176695e-05 5.7474612e-05 1.6234206e-05
0001b0 ed 50 5a 38 7f 1e 02 39 53 f3 2c 3b f1 b8 a7 b8
       5.205062e-05 0.00012409127 0.002639015 -7.9976286e-05
0001c0 9a b0 89 b9 c6 b8 70 39 f7 20 22 b6 d0 c7 aa b8
       -0.00026262255 0.00022957017 -2.415907e-06 -8.14345e-05
0001d0 aa 7a 0b b9 04 00 00 00 12 85 67 35 a9 2d 8c 37
       -0.00013301769 6e-45 8.624785e-07 1.6710563e-05
0001e0 ee 21 27 b8 0c 4c a7 b8 1c 5c 5f 39 64 d3 ef b8
       -3.9847502e-05 -7.9773454e-05 0.0002130125 -0.00011435783
0001f0 d5 d9 0c b9 07 d3 b4 38 21 6d ac b8 08 be 09 b9
       -0.00013432589 8.622376e-05 -8.221926e-05 -0.0001313613
000200 86 54 12 b8 49 7c 0b 39 8e 68 af b8 b1 c5 51 b9
       -3.488783e-05 0.00013302373 -8.364125e-05 -0.00020005439
000210 4c fe 45 38 f7 97 48 38 fc d4 2e b7 e8 03 07 b8
       4.7205293e-05 4.7825244e-05 -1.04207975e-05 -3.2190146e-05
000220 6f 6c bb 38 cd 99 bf b8 00 00 a0 b8 03 db 1b b8
       8.937052e-05 -9.136237e-05 -7.6293945e-05 -3.715885e-05
000230 55 ec fb b8 ea 3d a6 b8 9a a3 a9 b8 90 cc 5c 38
       -0.00012012633 -7.927029e-05 -8.089021e-05 5.26426e-05
000240 42 fd 04 b7 8c cc e0 b8 98 be 08 b9 4c b1 67 ba
       -7.926779e-06 -0.00010719252 -0.00013040972 -0.000883837
000250 28 0b 90 b7 64 6d 83 38 ed 21 d2 b7 04 5f c8 b6
       -1.7171333e-05 6.2669424e-05 -2.5049749e-05 -5.9715258e-06
000260 3c b3 1c 37 d5 94 bc b7 90 7b 49 b5 15 4c d0 b7
       9.340056e-06 -2.2480652e-05 -7.505814e-07 -2.483096e-05
000270 60 27 83 38 c5 db e1 b7 e8 f5 3d b8 cb 15 d7 37
       6.253901e-05 -2.6924428e-05 -4.529013e-05 2.5640145e-05
000280 9c ae 2a 38 f2 59 dc b6 c7 a6 5e 36 22 5f 59 38
       4.0693776e-05 -6.566982e-06 3.3177655e-06 5.182543e-05
000290 73 ec 42 37 da 08 e6 b7 f7 ba b4 b7 65 4e 58 b7
       1.1618354e-05 -2.7422258e-05 -2.1544734e-05 -1.2892856e-05
0002a0 40 f9 67 38 ef 24 90 37 4a e3 b0 b8 69 e6 dc 37
       5.5306824e-05 1.7183336e-05 -8.43467e-05 2.6333337e-05
0002b0 9f 74 80 37 b0 ca ae 38 39 29 82 37 35 2c 81 b8
       1.5313095e-05 8.33472e-05 1.5516403e-05 -6.1594335e-05
0002c0 7c 32 bf b7 c0 89 e9 37 59 6e 44 37 90 a6 ee 37
       -2.2792483e-05 2.783991e-05 1.1708203e-05 2.8449373e-05
0002d0 31 96 7f b8 aa df 13 38 6b 1d 9f 37 16 0e 26 b9
       -6.0936614e-05 3.5255835e-05 1.8967976e-05 -0.00015836241
0002e0 86 22 11 3a fe 23 2d 37 a8 53 d9 b6 4b 3a dc 37
       0.00055364554 1.0319984e-05 -6.476843e-06 2.6253188e-05
0002f0 cf 65 1c 37 eb 7f 7e b6 6e 71 2e 38 69 64 a5 37
       9.322029e-06 -3.7923407e-06 4.1590472e-05 1.971629e-05
000300 5e 86 01 b8 7d df 16 37 f1 84 50 37 cd f9 e1 37
       -3.0881136e-05 8.992732e-06 1.2428719e-05 2.6938413e-05
000310 f0 2f 4d 35 0f a6 22 37 b5 9f 07 36 58 13 25 36
       7.643821e-07 9.694616e-06 2.020953e-06 2.4598176e-06
000320 f7 3e 5c 37 32 b7 cd 37 86 48 10 38 b7 de 08 b8
       1.3127682e-05 2.4523211e-05 3.4399818e-05 -3.2632346e-05
000330 ea a4 f9 37 d5 9d a5 37 77 0b d6 36 7a c8 ff 36
       2.9759907e-05 1.9743029e-05 6.3790317e-06 7.6229308e-06
000340 e1 5d be 36 14 e5 fb 36 92 06 65 37 d0 ae 3d 37
       5.67337e-06 7.507051e-06 1.3650993e-05 1.130598e-05
000350 66 1c 6d 37 fc 58 b0 34 fe 87 61 37 d4 a8 93 ae
       1.4132913e-05 3.28473e-07 1.3442708e-05 -6.714776e-11
000360 31 54 8f 38 6d a6 f2 b7 40 9e 50 2e 4e 2e 33 38
       6.834453e-05 -2.8926146e-05 4.743428e-11 4.272005e-05
000370 60 2e cc b6 93 5a 96 39 39 11 81 b9 a6 16 10 bb
       -6.0850725e-06 0.00028677713 -0.0002461763 -0.0021986156
000380 a1 94 ca b8 c0 2e a8 b8 da 93 04 bb 27 3f f2 b9
       -9.659795e-05 -8.019572e-05 -0.0020229728 -0.0004620489
000390 19 eb 21 36 0c 8d ec ba ba 47 bb b9 dc ba ee ba
       2.4127714e-06 -0.0018047406 -0.0003572086 -0.0018213647
0003a0 e5 60 0d bb 0c d0 77 b9 ec e1 9b b9 66 67 91 38
       -0.0021572646 -0.00023633259 -0.0002973223 6.933398e-05
0003b0 bf 5f 27 ba 9e 5b ac b9 dc aa 82 38 62 5a fa b9
       -0.0006384812 -0.00032874657 6.230708e-05 -0.00047751056
0003c0 fd 1a f6 ba 06 d7 da b8 0f 83 fa ba 7c f7 aa 38
       -0.0018776354 -0.00010435101 -0.0019112545 8.152329e-05
0003d0 2a ec 2d ba 19 a1 06 b9 3c b3 00 ba 17 b9 2c bb
       -0.00066346175 -0.0001283925 -0.00049095205 -0.002635544
0003e0 04 00 00 80 04 00 00 00 a0 30 6a 37 c5 9d 99 b9
       -6e-45 6e-45 1.3958808e-05 -0.00029299982
0003f0 af 2a a2 b9 43 a5 76 b9 96 32 ea ba 95 2f 98 b9
       -0.0003093085 -0.00023521953 -0.0017867859 -0.0002902715
